spring_damper/Model_parameters/model1_noise.pt (torch, 470099 bytes, 17 tensors)

layers.layer_0.weight f4 [128, 1]
0	0xbe9f310e	-0.31092113
1	0xbf29eef9	-0.6638027
2	0x3de4e5a9	0.11176617
3	0x3ed3555d	0.41276065
4	0x3f68b0ca	0.9089476
5	0xbf0c3125	-0.5476249
6	0xbe29177e	-0.16512868
7	0xbf6ba0c5	-0.9204219
8	0x3f8bf97b	1.093551
9	0xbf0b7062	-0.5446836
10	0xbf975044	-1.182137
11	0xbe513fac	-0.20434445
12	0xbf8fc837	-1.1232976
13	0xbf27b4af	-0.65510076
14	0x3f1cc5e6	0.6123947
15	0x3f343b12	0.70402634
16	0x3ea96043	0.33081254
17	0xbe61ffd7	-0.22070251
18	0x3f159d6d	0.5844334
19	0xbec6e988	-0.38850045
20	0x3f367716	0.7127546
21	0x3f33a325	0.70170814
22	0x3f2ad463	0.66730326
23	0x3e55739d	0.20844884
24	0x3f6759be	0.9037131
25	0xbf31a6b7	-0.6939501
26	0xbf0f6c23	-0.5602438
27	0x3ea8a823	0.32940778
28	0x3ee2a83e	0.44268984
29	0x3e535e4d	0.20641442
30	0x3f2b1fa6	0.66845167
31	0x3d28c6ec	0.04120533
32	0x3f56fcb5	0.8397935
33	0x3d447dd4	0.04797156
34	0x3f44ee30	0.76925945
35	0xbe642c2b	-0.22282474
36	0xbf674159	-0.9033409
37	0xbeb0691b	-0.3445519
38	0x3e20b5d2	0.15694359
39	0xbdb3aeb3	-0.087735556
40	0xbe761d32	-0.24034575
41	0x3d48b545	0.049000997
42	0xbef722ad	-0.48268643
43	0x3e4d5d8c	0.20055217
44	0x3f2f39c8	0.6844754
45	0x3f1237c8	0.57116365
46	0xbf70eac2	-0.9410821
47	0xbf6568aa	-0.8961283
48	0x3da7e9e5	0.08198909
49	0xbdbaf8c1	-0.09129477
50	0xbe401bc5	-0.18760593
51	0xbf3981fc	-0.72463965
52	0x3d54ae66	0.05192413
53	0x3f0e44c1	0.5557366
54	0xbf2c9aa9	-0.6742349
55	0xbe4ba501	-0.19887163
56	0xbf35265f	-0.70761675
57	0x3e421386	0.1895276
58	0xbf0af61e	-0.54281795
59	0xbe21101e	-0.15728804
60	0xbf5c8350	-0.86137867
61	0x3f230aea	0.6368853
62	0x3f4359d1	0.76308924
63	0xbec4d7e6	-0.38445967
64	0x3f4668e7	0.7750382
65	0x3cfc9314	0.030831851
66	0x3e85e746	0.2615301
67	0x3f2f3438	0.68439054
68	0xbf207b87	-0.6268849
69	0x3e3611ce	0.1778023
70	0xbf70e98c	-0.94106364
71	0x3f4a83a4	0.7910712
72	0xbf30e47e	-0.6909865
73	0x3f14bf7c	0.5810468
74	0xbe364073	-0.17798023
75	0xbf5e3c3a	-0.8681065
76	0x3d44d8e8	0.04805842
77	0x3d25f52e	0.040517025
78	0xbd866a35	-0.06563226
79	0xbf91ee47	-1.1400841
80	0x3f8af32f	1.0855464
81	0xbf204339	-0.62602574
82	0x3f52b439	0.8230625
83	0x3e2bc13b	0.1677293
84	0x3e025b28	0.12730086
85	0xbf52446e	-0.82135665
86	0x3ee3298e	0.4436764
87	0x3f89192d	1.0710808
88	0x3f1ce7d2	0.6129123
89	0x3c830e5a	0.015998054
90	0xbf53774f	-0.82603925
91	0x3e420f51	0.18951155
92	0xbf0f66f0	-0.56016445
93	0x3f32c763	0.6983549
94	0x3e61392f	0.2199447
95	0x3e539bc3	0.20664887
96	0xbf2cc53c	-0.67488456
97	0xbf4a3782	-0.7899095
98	0x3deedc06	0.1166306
99	0xbd453c6e	-0.048153333
100	0xbefcaacf	-0.49349067
101	0x3eccdde6	0.40013045
102	0xbf699da3	-0.9125616
103	0x3f48db7c	0.78459907
104	0xbf09a226	-0.53763044
105	0xbf6f1517	-0.93391556
106	0x3ef3eaed	0.47640172
107	0xbf5da91c	-0.86586165
108	0xbebe5be6	-0.37179488
109	0x3d6b058d	0.05737834
110	0xbdce6f10	-0.10079777
111	0xbe200b1f	-0.15629242
112	0xbe4db066	-0.20086822
113	0xbda9641e	-0.08271049
114	0xbd959118	-0.07303065
115	0x3f59b728	0.850451
116	0xbe84cbfe	-0.25936884
117	0x3ee75a7c	0.45186222
118	0xbf296aba	-0.66178477
119	0xbe783cab	-0.24241893
120	0x3f5611a8	0.8362069
121	0xbf35da65	-0.7103637
122	0xbf1ceeec	-0.61302066
123	0x3e66a916	0.22525439
124	0xbe6da6a6	-0.23208103
125	0x3f049e70	0.51804256
126	0x3f6266b5	0.8843797
127	0xbf4af55b	-0.7928063

layers.layer_0.bias f4 [128]
0	0x3f22b78b	0.63561314
1	0x3f82fbf3	1.0233139
2	0x3f0ea788	0.5572438
3	0xbf63575d	-0.8880518
4	0xbf9e14d8	-1.2350111
5	0xbf2f4676	-0.6846689
6	0xbdcc34c6	-0.09971003
7	0x3f61d4d1	0.8821536
8	0x3f11c519	0.5694137
9	0x3f797cb5	0.9745591
10	0xbe75d396	-0.24006495
11	0x3f31a96a	0.6939913
12	0xbd0c006d	-0.034180094
13	0x3f3e8158	0.7441611
14	0x3efe6462	0.4968596
15	0xbe1940b7	-0.14966093
16	0xbef30887	-0.47467443
17	0x3d00c489	0.03143743
18	0x3ddceb3b	0.10787054
19	0x3f5bb5e0	0.85824394
20	0x3f313771	0.6922522
21	0xbf5f7a11	-0.87295634
22	0xbe06d34e	-0.13166544
23	0xbf1b2aa3	-0.60611933
24	0x3f6d0d6f	0.92598623
25	0x3eb4583c	0.35223567
26	0xbeb5d38e	-0.35512966
27	0xbf387f2c	-0.7206905
28	0x3f3d13c7	0.738583
29	0xbf327a8b	-0.69718236
30	0xbf267898	-0.6502776
31	0x3f4ab90c	0.7918861
32	0xbf7ca57a	-0.9869
33	0x3d5fdaeb	0.054652136
34	0xbeb96819	-0.36212233
35	0x3f2befc4	0.6716273
36	0xbf35d11f	-0.7102222
37	0xbe646c5d	-0.22306962
38	0x3ed88c06	0.4229433
39	0x3f33af03	0.7018892
40	0x3e6ecc42	0.23320106
41	0x3dbd67e1	0.09248329
42	0xbf7168c7	-0.943005
43	0x3f292623	0.66073817
44	0x3f63b3d8	0.88946295
45	0xbe124b44	-0.14286524
46	0xbf6d0c03	-0.92596453
47	0x3f73428f	0.95023435
48	0xbf144f1b	-0.57933205
49	0x3f4211a5	0.75808173
50	0x3ee72640	0.4514637
51	0x3d0de606	0.034643196
52	0xbe87d3a8	-0.26528668
53	0xbefeeb5d	-0.49788943
54	0x3e8f90c9	0.2804015
55	0xbebe06d6	-0.3711459
56	0xbe0d3aa9	-0.13791908
57	0xbf3a735b	-0.7283227
58	0xbee7fcb1	-0.45309976
59	0x3e67c2d0	0.22632909
60	0x3f92c1a5	1.1465346
61	0x3f4a6724	0.7906363
62	0x3dde0bd1	0.108420976
63	0x3f6fa453	0.93610114
64	0xbf34817c	-0.7051008
65	0x3f43232f	0.7622556
66	0xbdeb14ff	-0.11478614
67	0x3f3695bb	0.7132222
68	0xbe3b2432	-0.18275526
69	0xbec69fba	-0.38793737
70	0x3f88871f	1.0666236
71	0xbf69b97b	-0.91298646
72	0x3e4a77da	0.19772282
73	0x3e8bb8fd	0.27289572
74	0x3d590324	0.05298151
75	0x3fa2eb1a	1.2727997
76	0xbf3bccdf	-0.73359483
77	0xbeef1306	-0.466942
78	0x3f0096d3	0.5023014
79	0xbc58b349	-0.013226339
80	0xbe9d2f61	-0.3070021
81	0x3eb8edcf	0.36118934
82	0xbf9d1635	-1.2272402
83	0x3f788901	0.9708405
84	0x3e6a05f3	0.22853832
85	0xbf2227df	-0.6334209
86	0xbf596201	-0.8491517
87	0xbefe178c	-0.4962734
88	0x3ed04a10	0.40681505
89	0x3f320bd2	0.69549286
90	0x3f03af0f	0.51438993
91	0xbd616870	-0.05503124
92	0xbddd65c2	-0.108104244
93	0x3f7ce4cd	0.9878662
94	0xbf099cad	-0.53754693
95	0xbf502e74	-0.8132088
96	0x3e829693	0.25505504
97	0x3f371512	0.71516526
98	0x3eb115ee	0.34587044
99	0x3e375396	0.17902979
100	0xbd954704	-0.07288936
101	0xbf8464b3	-1.0343231
102	0xbf324577	-0.69637245
103	0xbf36f504	-0.71467614
104	0xbf742a01	-0.9537659
105	0xbf20a0ac	-0.62745166
106	0xbe021b28	-0.12705672
107	0xbf0db504	-0.5535433
108	0xbf2d44ae	-0.6768292
109	0xbec6b8d8	-0.388129
110	0x3f82ce1f	1.0219153
111	0xbeceedde	-0.40415853
112	0x3f297920	0.6620045
113	0x3f16620b	0.5874335
114	0x3e1716b6	0.14754757
115	0xbf7ea9dd	-0.9947794
116	0xbf5ce4a1	-0.8628636
117	0x3f6a77b0	0.9158888
118	0xbeeb3b6c	-0.45943773
119	0x3f04e6c2	0.5191461
120	0xbf8dbc90	-1.107317
121	0xbd1af161	-0.037827853
122	0xbf03535c	-0.5129907
123	0xbf8c0deb	-1.0941747
124	0x3f09e1fd	0.53860456
125	0x3f5359ae	0.82558715
126	0x3e3aba67	0.1823517
127	0xbf12e488	-0.5737996

layers.layer_1.weight f4 [128, 128]
0	0xbdc48c29	-0.09597046
1	0x3b1b1812	0.002366547
2	0xbbaa7dce	-0.0052029854
3	0xbc9e8cd2	-0.019354258
4	0x3c9da62a	0.019244272
5	0xbdd1d782	-0.10246183
6	0x3d87fe00	0.066402435
7	0x3cce417c	0.02517771
8	0x3dd6e4ae	0.10492836
9	0xb87af250	-5.9830316e-05
10	0xbc2bb28e	-0.0104795825
11	0xbbe217ee	-0.0068998253
12	0x3d2b6b35	0.041850287
13	0xbca21117	-0.01978354
14	0xbd2eb3f4	-0.042652085
15	0x3ddc0e67	0.107449345
16	0xbd305978	-0.043054074
17	0xbd9a5153	-0.075350426
18	0x3de252ff	0.110509865
19	0x3c58f0e5	0.0132410275
20	0x3da67537	0.08127826
21	0x3d941307	0.07230192
22	0x3dc64f07	0.09683042
23	0xbda92794	-0.08259502
24	0x3c47d410	0.012196556
25	0xbd8483bc	-0.06470439
26	0x3c9bd9e3	0.019024795
27	0x3db6e47d	0.089302994
28	0x3d6eebcf	0.058330353
29	0x3c8a23a4	0.016862698
30	0x3d016519	0.031590555
31	0x3da04df1	0.07827366
32	0xbbab8308	-0.005234126
33	0xbcf6aa75	-0.030110577
34	0x3c9a521c	0.01883798
35	0x3d8b02b2	0.067876235
36	0xbd546d86	-0.051862262
37	0x3d639644	0.055563226
38	0xbcbcc67f	-0.023043869
39	0x3d506baa	0.050883926
40	0x3d886160	0.06659198
41	0xbd496f31	-0.049178306
42	0xbdc0511a	-0.09390469
43	0x3db5cb2a	0.08876641
44	0x3dd0e4ac	0.10199866
45	0xbc2dfd4f	-0.0106194755
46	0x3d024372	0.031802602
47	0x3c6522a0	0.013985306
48	0xbd542f77	-0.05180308
49	0x3c70fa93	0.014708179
50	0x3dbc8a7c	0.09206101
51	0x3c555eb6	0.013023069
52	0xbdeb7870	-0.11497581
53	0x3d7cecd3	0.06174929
54	0xbd34b7ce	-0.044120602
55	0x3d19ebe2	0.03757847
56	0xbda72721	-0.0816176
57	0x3d3db847	0.04631832
58	0xbd1f02f6	-0.038821183
59	0xbcc184b2	-0.023622844
60	0x3d2ab8f6	0.0416803
61	0xbd74875e	-0.05969941
62	0xbc2f23a4	-0.01068965
63	0x3d846107	0.06463819
64	0xbc9a78d3	-0.018856442
65	0x3ba675ba	0.005079952
66	0x3bf7d2e9	0.0075629842
67	0xbd53677d	-0.051612366
68	0xbdcc9dd6	-0.09991042
69	0xbd7000ce	-0.058594517
70	0xbd402b38	-0.046916217
71	0x3da5dae3	0.0809839
72	0x3d330d3d	0.043713797
73	0x3c364ab8	0.011126213
74	0x3d3cbbe9	0.046077643
75	0xbce08540	-0.027407289
76	0xbd8ddf09	-0.06927306
77	0x3d51b8bf	0.05120158
78	0x3e4896d6	0.1958879
79	0x3d0b6b68	0.034037977
80	0xbd2f3489	-0.04277471
81	0xbc841539	-0.016123401
82	0x3d7ba930	0.061440647
83	0xbc56644f	-0.013085439
84	0x3d8455dc	0.06461689
85	0xbdb2beb7	-0.08727782
86	0x3d928d28	0.0715583
87	0xbd0c9727	-0.034323838
88	0x3dc59225	0.096470155
89	0xba22892a	-0.00062002486
90	0x3c107e35	0.008819153
91	0x3d83fbef	0.06444537
92	0xbdd630c9	-0.10458524
93	0xbd610565	-0.054936785
94	0xbdb6c90a	-0.08925064
95	0xbd9f306e	-0.07772909
96	0xbdd65b14	-0.104665905
97	0xbd0995f0	-0.033590257
98	0xbc9fb492	-0.019495282
99	0x3d085080	0.033279896
100	0x3d1c5052	0.038162537
101	0xbd3840e0	-0.044983745
102	0x3c876e1e	0.016532
103	0xbd6f2806	-0.05838778
104	0xbdbc0b63	-0.09181859
105	0xbd050991	-0.032479826
106	0xbbffb6d9	-0.0078037796
107	0xbdb4dd44	-0.088312656
108	0x3d0c90eb	0.034317892
109	0xbdb863f7	-0.09003442
110	0xbdba95bd	-0.091105916
111	0xbd19af67	-0.037520792
112	0x3d6d1646	0.05788257
113	0x3d40897b	0.04700611
114	0x3d0e333a	0.034716822
115	0xbc8ef5b7	-0.01745115
116	0xbd3fdcd4	-0.046841457
117	0x3dd63969	0.10460169
118	0x3d43c088	0.047791034
119	0xbc5de722	-0.013543876
120	0x3d128bf9	0.03577802
121	0x3d349be3	0.044093978
122	0x3b574a7b	0.003285079
123	0xbdb099ef	-0.086231105
124	0xbca55016	-0.02017979
125	0x3bd6bdc4	0.0065533835
126	0xbcb94673	-0.0226166
127	0xbde161cf	-0.11004984
128	0x3ccf9a13	0.025342023
129	0x3d3c866c	0.046026632
130	0x3d8eaf10	0.06966984
131	0x3c6f2e03	0.014598372
132	0x3d76c670	0.06024784
133	0xbd887ed8	-0.066648185
134	0xbd5d885c	-0.05408512
135	0xbdbfadfc	-0.09359357
136	0x3c9780fa	0.018494118
137	0x3d3d0359	0.04614577
138	0x3d1bcf61	0.03803957
139	0x3cf65101	0.030067923
140	0x3ce1cbe0	0.027563035
141	0xbcce4cf2	-0.025183175
142	0x3db48e9e	0.088162646
143	0x3d401f9f	0.046905156
144	0xbdb54e6f	-0.08852851
145	0x3dc2e608	0.09516531
146	0x3be1d633	0.0068919896
147	0x3d87cd9a	0.06631012
148	0xbcabb340	-0.020959496
149	0x3da37ac4	0.079824
150	0x3d39a508	0.0453234
151	0xbd8fc40e	-0.07019816
152	0x3d970182	0.073733345
153	0x3ba84000	0.0051345825
154	0xbdb1b20c	-0.08676538
155	0xbd8fe50f	-0.07026111
156	0xbb8fd5bd	-0.0043894933
157	0x3c79ca9b	0.015246059
158	0xbbe38a34	-0.0069439653
159	0x3bdfd982	0.006831349
160	0x3d92afe3	0.07162454
161	0xbdbf9b34	-0.093557745
162	0x3cc17da1	0.023619475
163	0x3dc9ed0e	0.09859668
164	0xbc08b8b8	-0.008344822
165	0xbd097e87	-0.03356793
166	0xbd6b8641	-0.05750108
167	0x3da018f0	0.078172565
168	0x3cd5c2fa	0.026093949
169	0xbd5d8aed	-0.054087568
170	0xbd6c02c5	-0.05761983
171	0xbd1b35c7	-0.037893083
172	0xbd9ea244	-0.077457935
173	0xbd16ae94	-0.036787584
174	0x3d8cb8b9	0.068711706
175	0xbdc18e42	-0.09450962
176	0xbdabbe65	-0.08385924
177	0x3d1ce45f	0.03830373
178	0x3de97951	0.114000924
179	0x3caae0f5	0.020859221
180	0xbe34325f	-0.1759734
181	0xbcf14f90	-0.029456884
182	0xbd8bd1e6	-0.06827144
183	0xbd7d4ad6	-0.061838947
184	0x3ce82f19	0.02834277
185	0xbdd1d197	-0.10245054
186	0x3d915230	0.07095754
187	0x3d073cb1	0.033016864
188	0xbcd689ef	-0.026188819
189	0xbc81b48c	-0.015833162
190	0xbc2ed491	-0.010670797
191	0xbd410862	-0.047127135
192	0x3d92a94f	0.07161199
193	0xbda60e30	-0.08108175
194	0xbd9c6e83	-0.07638266
195	0xbba8ba7e	-0.0051491847
196	0x3c9405ea	0.018069226
197	0xbdbb16f5	-0.09135238
198	0x3d656511	0.056004588
199	0xbd844fa0	-0.064605
200	0x3a1a424f	0.00058845145
201	0xbd7155a1	-0.058919553
202	0x3d8af326	0.06784658
203	0x3d877a9f	0.06615185
204	0xbd82e878	-0.06391996
205	0x3c8b74d9	0.01702349
206	0x3dd1125c	0.1020858
207	0xbd58a608	-0.052892715
208	0x3d161356	0.036639534
209	0x3c3d259e	0.011544613
210	0x3cf8d8ac	0.030376755
211	0x3c933cb7	0.017973287
212	0x3c99709f	0.01873046
213	0xbdae84d9	-0.085214324
214	0xbdaa2595	-0.083079495
215	0x3d8462f6	0.06464188
216	0x3db559ab	0.088549934
217	0x3d5ac1c2	0.053407438
218	0xbbfd7c8c	-0.0077357944
219	0xbd8860c5	-0.06659082
220	0x3b841386	0.0040306477
221	0xbc838498	-0.016054437
222	0xbd6d275d	-0.057898868
223	0x3c3c7723	0.011503014
224	0xbd9621d4	-0.07330671
225	0xbd96e778	-0.07368368
226	0xbd12b9fe	-0.035821907
227	0x3c9d6736	0.019214254
228	0xbda4884e	-0.080338106
229	0x3d86956a	0.06571467
230	0x3d5da895	0.05411585
231	0x3d51e9b7	0.05124828
232	0x3d76e2cf	0.060274895
233	0xbd20cfc9	-0.03926066
234	0xbc131d1e	-0.00897911
235	0x3bf0fa4a	0.0073540555
236	0xbca637a6	-0.020290207
237	0xbc9e8f10	-0.019355327
238	0xbda5d26d	-0.08096776
239	0x3d4712d6	0.048601948
240	0x3df6986a	0.120407894
241	0x3c03cc1c	0.008044269
242	0xbd588587	-0.052861717
243	0xba622b76	-0.0008627692
244	0xbdb176c3	-0.0866523
245	0x3c853092	0.016258512
246	0xbc911bee	-0.017713513
247	0x3c91c08a	0.017792005
248	0xbd6062f4	-0.05478187
249	0x3d0e4589	0.034734283
250	0x3be8c44e	0.0071034795
251	0xbcddeaa5	-0.027089426
252	0x3a1d62d9	0.0006003804
253	0x3c003375	0.007824768
254	0x3d182870	0.03714794
255	0x3da7290d	0.08162127

layers.layer_1.bias f4 [128]
0	0x3dab5755	0.08366267
1	0xbdb168f6	-0.08662598
2	0x3db1608b	0.08660992
3	0x3d89f94d	0.067370035
4	0xbd7f03cf	-0.06225949
5	0x3d42f803	0.047599804
6	0xbd4f7009	-0.050643954
7	0x3ccfb7b1	0.025356146
8	0xbd9023d6	-0.07038085
9	0xbdbfe6ce	-0.093701944
10	0xbd42594c	-0.04744844
11	0x3ce21325	0.02759702
12	0xbd77d952	-0.060509987
13	0x3dab76a7	0.083722405
14	0xbc4ad3ca	-0.012379596
15	0x39b2b688	0.00034086802
16	0x3a000bc1	0.0004884564
17	0xbdc66e03	-0.09688952
18	0x3b22d228	0.0024844501
19	0x3d778dbd	0.060437907
20	0x3dce8fa8	0.10085994
21	0x3d0116c9	0.03151587
22	0xbc5d9de0	-0.01352641
23	0x3d3a6405	0.045505542
24	0x3d768f6d	0.060195375
25	0xbd7d019b	-0.06176911
26	0x3bc2eda9	0.0059487415
27	0x3d92956e	0.07157408
28	0xbc85d757	-0.016338034
29	0x3d6bd9da	0.057580806
30	0xbc84e1bb	-0.016220918
31	0x3d3cadd8	0.046064228
32	0xbd10380e	-0.035209708
33	0x3d9e4068	0.07727128
34	0xbdb4529d	-0.0880482
35	0x3d8e29f2	0.06941594
36	0xbd9efbca	-0.07762869
37	0xbd4e7a76	-0.050409757
38	0xbceb0920	-0.028690875
39	0x3da72693	0.08161654
40	0xbd1b633b	-0.03793643
41	0xbda2d1fb	-0.07950207
42	0x3d2185c7	0.03943422
43	0xbd64b12b	-0.055833023
44	0xbd80dbec	-0.06291947
45	0xbd06f56e	-0.032948904
46	0x3d7404c6	0.059574865
47	0xbd8f7783	-0.07005217
48	0x3d648ef5	0.055800397
49	0xbd31ee48	-0.043440133
50	0x3bffc2c5	0.0078052008
51	0x3bfc23ce	0.007694698
52	0x3d45fa26	0.048334263
53	0x3d31b08d	0.043381263
54	0x3d2976a8	0.041372925
55	0xbd8ee2f7	-0.06976884
56	0xbd6f2aaf	-0.058390316
57	0xbcd7ac94	-0.026327409
58	0xbd21acdd	-0.039471496
59	0x3da4f758	0.080549896
60	0x3da20278	0.07910627
61	0x3d6363cb	0.055515092
62	0x3d124d9a	0.035718538
63	0x3cc4307c	0.0239489
64	0x3d2a399e	0.041558854
65	0x3d823c4d	0.06359158
66	0xbc867f76	-0.0164182
67	0xbd075b69	-0.03304616
68	0xbd0efe1d	-0.03491031
69	0xbda6f4b0	-0.08152139
70	0x3d6477eb	0.055778425
71	0xbb3a0d20	-0.002838917
72	0x3becead0	0.0072301403
73	0x3c084da5	0.008319293
74	0x3d296be5	0.041362662
75	0x3ca5d6ec	0.020244084
76	0x3b8beb88	0.004270021
77	0x3c0ea29a	0.008705759
78	0xbbe4ca49	-0.006982122
79	0xbd7cbbdd	-0.061702598
80	0x3b939e7d	0.0045049773
81	0xbd453758	-0.048148483
82	0xbce04b5c	-0.027379684
83	0x3da6d7b5	0.081466116
84	0x3d377111	0.044785563
85	0xbc64b345	-0.013958757
86	0xbafa43dc	-0.001909371
87	0xbd4d4964	-0.05011882
88	0x3d90768e	0.070538625
89	0xbca992d7	-0.020699902
90	0xbd1b1dde	-0.03787028
91	0x3c330687	0.010926849
92	0x3c440119	0.011963152
93	0xbcec478b	-0.028842708
94	0xbb9e1d21	-0.00482525
95	0xbd2a0c4d	-0.041515637
96	0x3c707350	0.01467593
97	0x3dcbed76	0.099574015
98	0x3d8979f6	0.06712715
99	0xbc97a7f2	-0.0185127
100	0xbd95d19b	-0.0731537
101	0x3d6e4534	0.058171466
102	0xbcc11d87	-0.02357365
103	0x3d33c2c1	0.043886904
104	0x3d247545	0.0401509
105	0xbd938663	-0.072033666
106	0xbd8c3f41	-0.06848002
107	0x3cac9c60	0.02107066
108	0x3c9f8093	0.019470489
109	0xbdd1496d	-0.10219083
110	0x3d101d7e	0.035184376
111	0x3bfe4120	0.0077592283
112	0xbd957756	-0.07298152
113	0xbaba261c	-0.0014202031
114	0xbd8df2bb	-0.06931063
115	0xbd793b75	-0.06084772
116	0xbd002151	-0.031281773
117	0x3c06d07f	0.00822842
118	0xbd5ca1fd	-0.05386542
119	0x3db9cb01	0.09071923
120	0x3c3d9360	0.0115707815
121	0xbd816863	-0.06318738
122	0x3d201303	0.03908063
123	0x3dbaad40	0.09115076
124	0x3cfdddb4	0.030989505
125	0xbd84efba	-0.06491037
126	0xbc682f5d	-0.014171449
127	0x3c02ad75	0.007975926

layers.layer_2.weight f4 [128, 128]
0	0xbb39c652	-0.0028346968
1	0x3bb7805b	0.005600018
2	0x3d2be12a	0.04196278
3	0x3ccf9999	0.025341796
4	0xbd9f464d	-0.07777081
5	0x3cf62198	0.030045316
6	0x3c1dfb99	0.009642505
7	0x3d8bee0e	0.06832515
8	0x3d3eb031	0.046554748
9	0xbda2b237	-0.07944148
10	0x3d83c45c	0.06433937
11	0xbaacd199	-0.0013185024
12	0xbc6f55d6	-0.014607867
13	0x3daec81e	0.08534263
14	0x3bacb8d5	0.005271057
15	0xbdc1204b	-0.094299875
16	0xbd864722	-0.06556536
17	0xbd85011e	-0.06494354
18	0x3d80d1f6	0.06290047
19	0xbcf7ba2b	-0.030240139
20	0x3dc8899f	0.09791874
21	0xbda73af2	-0.0816554
22	0xbda4896b	-0.08034023
23	0x3d0cbd6e	0.03436034
24	0x3de8b4eb	0.11362632
25	0xbd1e4ef7	-0.038649525
26	0x3d91b07f	0.07113742
27	0x3d6c8e90	0.057753146
28	0xbdb317f9	-0.08744807
29	0x3cd189a5	0.02557833
30	0xba9f7134	-0.0012164474
31	0x3e060d00	0.13090897
32	0xbd2906d4	-0.041266277
33	0x3d001931	0.031274024
34	0xbc42bfdc	-0.011886563
35	0x3db88ade	0.09010862
36	0xbd50802f	-0.050903495
37	0xbcaaee12	-0.020865474
38	0xbdc6b48f	-0.097024076
39	0x3dcd0f59	0.10012693
40	0xbd2e5734	-0.042563632
41	0x3d3749e7	0.044748213
42	0xbcf07769	-0.029353814
43	0x3da94f52	0.08267082
44	0xbdc8a340	-0.097967625
45	0xbd7d02b2	-0.06177015
46	0xbd03a702	-0.032141693
47	0xbd004843	-0.031318914
48	0x3d8f5ad4	0.06999746
49	0xbcfa4a24	-0.030552931
50	0xbd96acec	-0.07357201
51	0x3da54259	0.080692954
52	0xbbaa6a06	-0.0052006273
53	0x3d507194	0.050889567
54	0x3dbbe197	0.09173887
55	0x397c8855	0.0002408338
56	0x3d869f73	0.06573381
57	0x3d54cff6	0.05195614
58	0xbd6f4b29	-0.058421288
59	0xbe0ce0fa	-0.13757697
60	0x3c39139c	0.011296179
61	0xbd4268cf	-0.047463235
62	0xbc4f4453	-0.012650567
63	0x3cee85c8	0.029116526
64	0xbccb2be9	-0.024801211
65	0xbda3755f	-0.07981371
66	0xbd432cb0	-0.04765004
67	0x3bcde2ef	0.006283156
68	0x3daa1065	0.08303908
69	0xbd88fbe9	-0.06688673
70	0xbda70cda	-0.08156748
71	0xbd451122	-0.048112042
72	0x3da354ce	0.079751596
73	0xbcfbbfdd	-0.030731136
74	0xbd8b7512	-0.06809439
75	0xbd9fbd38	-0.077997625
76	0x3cea201a	0.02857976
77	0x3cd4f531	0.025995823
78	0x3cc5a379	0.024125801
79	0xba866591	-0.0010253658
80	0xbd39ee9d	-0.045393575
81	0xbd570c08	-0.05250171
82	0x3c1e2fc2	0.009654941
83	0xbd873344	-0.06601575
84	0x3da9b782	0.082869545
85	0x3ba6e5bd	0.005093305
86	0xbdbe598d	-0.09294424
87	0xbd6285ed	-0.055303503
88	0x3ca9e3de	0.020738538
89	0x3bef9636	0.0073116077
90	0x3d0a42d4	0.03375514
91	0xbdb57e38	-0.08861965
92	0x3da04d8c	0.07827291
93	0x3def79a1	0.11693121
94	0xbd7775c5	-0.06041505
95	0xbcc497b8	-0.023998126
96	0x3c72a424	0.014809642
97	0x3c5e2c75	0.013560404
98	0x3d18654f	0.03720599
99	0x3c852b13	0.016255891
100	0xbc793850	-0.01521118
101	0x3d619bd2	0.055080242
102	0xbd4b6613	-0.049657892
103	0x3dca7ab5	0.09886686
104	0xbd3a035d	-0.045413364
105	0x3ddb0895	0.10694996
106	0xbd5a2b77	-0.053264108
107	0xbdb9c632	-0.09071006
108	0xbd98f218	-0.07468051
109	0xbdae64b3	-0.085153006
110	0xbc68749c	-0.014187958
111	0x3ca516a1	0.020152392
112	0xbbc6c225	-0.0060656243
113	0x3ce4e297	0.027940078
114	0x3d8bee7f	0.06832599
115	0xbd2cea3d	-0.042215575
116	0x3d4f3274	0.050585225
117	0xbc39dbc5	-0.011343901
118	0xbd81d8cb	-0.06340178
119	0x3df1ba71	0.11803139
120	0x3cea2f37	0.028586967
121	0xb87bf3d4	-6.0070146e-05
122	0xbd65431c	-0.055972204
123	0xbd92edda	-0.07174273
124	0xbd37be1b	-0.044859033
125	0xbd58dae6	-0.052943133
126	0xbb34f798	-0.0027613398
127	0xbc494a8d	-0.012285841
128	0x3d8e397d	0.06944559
129	0x3c87c343	0.0165726
130	0x3c2035c0	0.00977844
131	0xbb251e4a	-0.0025195056
132	0xbd27209a	-0.040802576
133	0x3d3d8ecf	0.04627877
134	0xbcdf59ac	-0.027264439
135	0xbd63e7b6	-0.0556409
136	0xbe11967c	-0.14217561
137	0xbcaad92d	-0.02085551
138	0x3db44854	0.08802858
139	0x3af1cbe7	0.0018447608
140	0x3d8cdea7	0.06878405
141	0x3d893920	0.06700349
142	0xbd6a7072	-0.057236142
143	0x3d60d7d7	0.05489334
144	0x3af0bfba	0.0018367686
145	0xbdc86de6	-0.097865865
146	0xbda641bc	-0.081180066
147	0x3c93c258	0.018037006
148	0x3d1b9e5b	0.037992816
149	0x3cc9ee9f	0.024649916
150	0x3d0f6e5b	0.035017353
151	0x3c830f80	0.015998602
152	0x3d9a6ba5	0.07540063
153	0xbc039bd8	-0.0080327615
154	0x3cb79b8b	0.022413036
155	0xbc932f6f	-0.017966954
156	0xbd43e3ec	-0.047824785
157	0xbca28051	-0.019836577
158	0x3bccbe6d	0.0062482865
159	0x3ccd8fd4	0.025092997
160	0x3d8f9dcb	0.070125185
161	0x3d7aabb3	0.0611989
162	0xbd36ea7b	-0.04465721
163	0x3de3af86	0.11117463
164	0xbda752b8	-0.08170074
165	0xbcdd8e4f	-0.027045397
166	0xbdfa042c	-0.12207827
167	0xbdab189d	-0.08354304
168	0xbd96af0f	-0.073576085
169	0xbd5b097a	-0.053475834
170	0xbda935e1	-0.0826223
171	0x3dca13e2	0.098670736
172	0x3a50b3e2	0.0007961375
173	0x3cde22e0	0.02711624
174	0xbd891dd3	-0.06695142
175	0x3ce12a6d	0.02748605
176	0x3d77fd6b	0.060544413
177	0x3d7a1516	0.061055265
178	0xbdc32c09	-0.095298834
179	0x3d86675b	0.06562682
180	0xbdcfa3a1	-0.101386316
181	0x3d0b5d05	0.034024257
182	0x3bc9ec3b	0.006162194
183	0xbcb06173	-0.021530842
184	0xbd89ffdd	-0.06738255
185	0xbc659303	-0.014012101
186	0xbd6c9a23	-0.057764184
187	0xbd845ba8	-0.064627945
188	0x3c67e47e	0.014153598
189	0xbd35e4d5	-0.044407684
190	0xbda770ba	-0.08175798
191	0xbb2c7fa5	-0.00263212
192	0xbc123511	-0.008923785
193	0xbdcbbe3b	-0.09948393
194	0xbda15824	-0.078781396
195	0xbb1975e9	-0.0023416227
196	0x3d16d973	0.03682847
197	0x3c83eda5	0.016104529
198	0x3c452bb2	0.012034344
199	0x3d755a78	0.05990073
200	0xbdb61d63	-0.08892324
201	0xbdb0ff0e	-0.08642398
202	0x3b01d613	0.0019811436
203	0x3d0950df	0.03352439
204	0x3d9917b1	0.07475222
205	0xbcc19796	-0.023631852
206	0x3ce0da81	0.02744794
207	0xbdcc16a4	-0.09965256
208	0xbb2ef066	-0.0026693582
209	0x3d11a84d	0.035560895
210	0xbbde5f7f	-0.0067862864
211	0x3cf146e4	0.029452749
212	0xbd271e75	-0.04080053
213	0xbd50fc90	-0.051022112
214	0x3d126e6f	0.03574985
215	0xbd9d2771	-0.076735385
216	0xbc7bca5d	-0.015368071
217	0xbba04c54	-0.0048919115
218	0x3d0ebcb6	0.034847938
219	0x38e982e3	0.00011134685
220	0xbd8281c1	-0.06372405
221	0xbca2d521	-0.019877018
222	0xbd872226	-0.0659831
223	0x3d8a509c	0.06753656
224	0x3bbf0f90	0.0058307126
225	0xbafab455	-0.001912723
226	0x3dbd3d92	0.09240259
227	0x3de0b848	0.10972649
228	0xbd7ba923	-0.0614406
229	0x3cb9dc7a	0.02268814
230	0x3daed6cb	0.08537062
231	0x3de426bc	0.111402005
232	0x3dbc3588	0.09189898
233	0x3db3738e	0.08762275
234	0xbd444c49	-0.047924314
235	0x3d4d3264	0.050096884
236	0xbbe44c83	-0.0069671287
237	0xbdac1934	-0.084032446
238	0xbd7c446d	-0.061588693
239	0x3ce5525d	0.027993375
240	0xbdfb0711	-0.12257207
241	0x3cf44c70	0.029821604
242	0xbc094658	-0.008378588
243	0xbd876d52	-0.06612648
244	0xbd04f03c	-0.032455668
245	0x3d5e694e	0.054299645
246	0x3c2731d8	0.010204755
247	0x3dd6b056	0.10482852
248	0xbd32f89a	-0.043694116
249	0xbacf57ee	-0.0015819052
250	0x3d5c5ca2	0.05379928
251	0x3c1c7405	0.009549146
252	0x3a82fa31	0.0009992776
253	0xbca6007d	-0.020263905
254	0x3d492a42	0.049112566
255	0x3d1817d6	0.037132107

layers.layer_2.bias f4 [128]
0	0x3b152a08	0.0022760648
1	0x3d513f3a	0.05108569
2	0x3d11cf8e	0.03559833
3	0x3d0b10ad	0.03395145
4	0x3d549c14	0.05190666
5	0xbd6667f4	-0.05625148
6	0x3c81b77b	0.01583456
7	0xbd06e7b4	-0.032935813
8	0xbc702be6	-0.014658904
9	0xbd83d684	-0.064374
10	0x3d725624	0.05916418
11	0x3b9f8c8d	0.00486905
12	0x3d300d26	0.04298129
13	0xbce7d1dc	-0.028298311
14	0x3b9edb64	0.0048479307
15	0xbd9660d0	-0.07342684
16	0x3c4792ae	0.012180967
17	0xbd34d99f	-0.044152852
18	0x3da41e3a	0.08013578
19	0xbd03ffce	-0.032226376
20	0xbcd8cdc5	-0.026465306
21	0x3d4070cf	0.046982583
22	0xbda943d2	-0.08264889
23	0x3dcdf325	0.10056142
24	0x3ad0e2ce	0.0015936734
25	0xbca0adf2	-0.019614194
26	0xbc92acd2	-0.017904673
27	0x3d99e6b7	0.075147085
28	0x3db74cab	0.0895017
29	0x3dba4084	0.09094337
30	0x3dd8e5b2	0.10590686
31	0x3cf42dd9	0.029807018
32	0xbcfec552	-0.031099949
33	0x3b926c95	0.0044685104
34	0xbd4cca75	-0.049997766
35	0xbd6dbc19	-0.058040712
36	0x3d037396	0.032092653
37	0x3cc29b9c	0.023755841
38	0xbd9de838	-0.07710308
39	0x3ca4bf70	0.020110816
40	0x3d2b337a	0.04179714
41	0x3d9745e4	0.073863775
42	0x3dcbfc10	0.099601865
43	0xbd656dcf	-0.056012925
44	0x3d852113	0.06500449
45	0xbcab8567	-0.020937635
46	0xbca3b760	-0.019984901
47	0x3c795a41	0.015219272
48	0xbd84d5fa	-0.06486125
49	0x3db3a4c8	0.08771664
50	0x3c06882d	0.008211178
51	0xbce18d59	-0.02753322
52	0x3d650818	0.055915922
53	0x3d8adc49	0.06780297
54	0x3d80d9d7	0.0629155
55	0x3d88780f	0.06663524
56	0x3b708fbb	0.0036706764
57	0xbd3cb115	-0.046067316
58	0x3d7ece90	0.062208712
59	0xbcb2ae57	-0.021811647
60	0xbc7cc461	-0.01542768
61	0xbd38cc66	-0.045116805
62	0x3c1541cf	0.009109928
63	0xbd035872	-0.03206677
64	0xbcc96bdf	-0.02458757
65	0x3d779fa0	0.060454965
66	0x3d9059ca	0.07048376
67	0x3da1953b	0.078897916
68	0xbd199691	-0.037497107
69	0xbdb885f9	-0.09009928
70	0x3d0ee0e2	0.034882434
71	0x3c8e947a	0.017404784
72	0x3d021c6d	0.03176539
73	0x3d932ab9	0.07185883
74	0x3d512750	0.051062882
75	0xbcbceab6	-0.023061138
76	0x3d574087	0.052551772
77	0x3d7c0e44	0.061537042
78	0x3c4056a7	0.0117394095
79	0xbd152764	-0.03641452
80	0xbbe57e89	-0.0070036096
81	0x3cbb6159	0.022873567
82	0xba01c43b	-0.00049502
83	0x3d1435a1	0.036183957
84	0xbd13f9b1	-0.036126796
85	0x3bacf24b	0.005277907
86	0xbd2a34c5	-0.04155423
87	0x3d0afb82	0.033931263
88	0x3d18cee5	0.037306685
89	0xbd841ce9	-0.06450827
90	0xbd550007	-0.05200198
91	0xbda6aa54	-0.08137956
92	0x3cb7b5fe	0.022425648
93	0xbd1a198a	-0.037622012
94	0xbd955a6c	-0.07292637
95	0x3d99257a	0.07477851
96	0x3dce18f4	0.10063353
97	0x3d597c21	0.053096894
98	0xbd62f895	-0.055412848
99	0x3ce8149c	0.02833014
100	0x3d0df0b0	0.034653366
101	0x3c57f333	0.013180542
102	0xbd840e2e	-0.06448017
103	0xbd6d8fd0	-0.05799848
104	0x3d340385	0.04394867
105	0x3cde7e0c	0.027159713
106	0xbc002a36	-0.007822564
107	0xbcd8821c	-0.026429228
108	0xbc8ec22c	-0.017426573
109	0x3d30f3aa	0.043201126
110	0xbd78198e	-0.060571246
111	0x3c75bfbb	0.014999325
112	0x3c2bc407	0.010483748
113	0xbd58d12d	-0.05293386
114	0xbb90e522	-0.004421846
115	0xbb81e397	-0.0039638984
116	0xbd43b70d	-0.047781993
117	0xbd9ff184	-0.07809737
118	0xbdb92432	-0.09040107
119	0x3d409cf2	0.047024675
120	0x3c6437fa	0.0139293615
121	0xbc731611	-0.014836804
122	0xbd159150	-0.036515534
123	0x3ca9531e	0.020669516
124	0x3d6036c1	0.054739717
125	0x3d9f5d33	0.07781448
126	0x3d3ae932	0.04563255
127	0x3dc29bc4	0.09502366

layers.layer_3.weight f4 [128, 128]
0	0xbccf09b9	-0.02527319
1	0x3d0ef90f	0.03490549
2	0x3d613c11	0.054988924
3	0x3d7df2f6	0.061999284
4	0x3db85ae9	0.09001715
5	0x3da3ead3	0.080037735
6	0xbd69f7e7	-0.057121184
7	0xbc8e9e9e	-0.017409619
8	0xbc1116ce	-0.008855535
9	0x3daeb53e	0.08530663
10	0x3d41f921	0.04735673
11	0x3baaf56b	0.0052172444
12	0x3bb99a0a	0.005664115
13	0x3dcceb15	0.10005776
14	0xbd0a6d4c	-0.03379564
15	0xbccc219d	-0.024918372
16	0x3dd38d46	0.1032968
17	0xbde56650	-0.11201155
18	0xbda213fe	-0.079139695
19	0xbd8fc0dd	-0.070192076
20	0xbd8b82e9	-0.068120785
21	0x3d0abbf1	0.03387064
22	0xbd20fb5f	-0.039302226
23	0x3d13a19b	0.03604279
24	0x3d4f537f	0.050616737
25	0x3d8b8c59	0.068138786
26	0xbc6a5121	-0.014301569
27	0x3d612d77	0.054975
28	0xbd49be20	-0.049253583
29	0x3c4f90a4	0.012668762
30	0x3d96f3bf	0.0737071
31	0xbcf62511	-0.030046972
32	0x3d88ee21	0.066860445
33	0xbbca54d2	-0.006174662
34	0x3cd65e05	0.026167879
35	0xbb057bc6	-0.0020367964
36	0x3c82abc8	0.015951052
37	0x3dc0af31	0.09408415
38	0xbda75936	-0.081713125
39	0x3d2d25d0	0.04227239
40	0xbd04c2ef	-0.032412466
41	0xbd8280c2	-0.06372215
42	0x3d60b790	0.05486256
43	0xbce8c21f	-0.028412877
44	0xbd9b9a25	-0.0759776
45	0xbd557c4e	-0.0521205
46	0xbdb97f8f	-0.09057533
47	0xbc256f2d	-0.010097307
48	0x3d4748f1	0.048653547
49	0xbd6ff98d	-0.0585876
50	0x3c7bd2c3	0.015370074
51	0xbd0805e2	-0.033208735
52	0x3c40ed4a	0.011775324
53	0xbd49373e	-0.04912495
54	0x3c988c2a	0.018621523
55	0xbcea0272	-0.02856562
56	0x3db3dc02	0.087821975
57	0x3d98f836	0.074692175
58	0xbd7219dd	-0.059106696
59	0xbcb5785d	-0.02215212
60	0xbb973865	-0.004614877
61	0xbdbefa6f	-0.0932511
62	0xbdc912bd	-0.09818027
63	0x3db4e08c	0.088318914
64	0x3d815d84	0.06316665
65	0xbc0e461c	-0.008683708
66	0xbdb06865	-0.08613662
67	0x3dc6452a	0.09681161
68	0x3cabc4b5	0.02096782
69	0xbbc82a49	-0.0061085564
70	0xbd2cb59f	-0.042165395
71	0xbdaf3a42	-0.08556034
72	0xbdb78af4	-0.0896205
73	0xbd376532	-0.04477424
74	0x3bc3b1e8	0.005972136
75	0xbbad6ea3	-0.00529273
76	0xbd235d5e	-0.039883964
77	0xbc9049fc	-0.017613403
78	0x3d269c35	0.040676314
79	0xbc9357e9	-0.017986255
80	0x3d20c55a	0.03925071
81	0xbc3f0114	-0.011657972
82	0xbabd7cc1	-0.0014456735
83	0x3d63a5f6	0.055578195
84	0x3c030ca0	0.0079986155
85	0x3d3862af	0.045015987
86	0x3cc5bff1	0.024139376
87	0x3d26ace2	0.040692218
88	0x3d14249c	0.036167726
89	0xbd92019f	-0.071292154
90	0xbc6da83a	-0.01450544
91	0xbdc9982d	-0.09843478
92	0x3d9ce406	0.076606795
93	0xbcc68ac2	-0.024236087
94	0xbd7a6edc	-0.06114088
95	0xbd13aa99	-0.036051366
96	0x3d83bf4c	0.06432971
97	0x3c409bc7	0.01175589
98	0x3dca7fde	0.0988767
99	0xbd9caac2	-0.07649757
100	0xbd4230fb	-0.047409993
101	0xbc618cac	-0.013766449
102	0xbd00f474	-0.03148313
103	0x3d435165	0.047685046
104	0xbdd40c94	-0.103539616
105	0xbd759e02	-0.05996514
106	0xbd9d3565	-0.076762
107	0x3d16198b	0.036645453
108	0x3dad5caf	0.084649436
109	0xbc6ed4e5	-0.014577125
110	0xbdbf0f88	-0.09329134
111	0xbdbeda2f	-0.09318959
112	0x3d95babc	0.073110074
113	0xbc98200a	-0.018569965
114	0x3ceb3b1c	0.028714709
115	0xbc16ee89	-0.009212145
116	0xbd44ad34	-0.048016742
117	0xbd473f92	-0.04864461
118	0x3bce4d99	0.0062958715
119	0x3b95edad	0.0045754523
120	0xbbbc6aeb	-0.0057500503
121	0x3d02223c	0.03177093
122	0x3b3944ab	0.002826969
123	0x3b3cfe98	0.0028838273
124	0xbd2f6527	-0.042821076
125	0x3d8de1bb	0.0692782
126	0x3d186774	0.037208036
127	0xbd4f0a05	-0.050546665
128	0xbbfb6f5f	-0.0076731886
129	0xbd290eb9	-0.041273806
130	0x3d7fc9da	0.06244836
131	0x3bb53812	0.0055303657
132	0x3d5ec87a	0.054390408
133	0x3d97aa2b	0.07405504
134	0x3db5faf9	0.0888576
135	0xbc125732	-0.008931922
136	0xbd8ce20b	-0.06879052
137	0x3cb98f94	0.022651471
138	0xbb1dee9c	-0.002409852
139	0x3d88dd35	0.06682817
140	0x3d5db5c3	0.05412842
141	0x3c0f3f6e	0.00874315
142	0xbd8d9044	-0.06912282
143	0x3cc88205	0.02447606
144	0x3d84f6a9	0.06492359
145	0x3ce42be5	0.027852962
146	0x3b028ac8	0.0019919146
147	0x3d9ade3b	0.07561918
148	0xbda624a0	-0.081124544
149	0xbd8ec902	-0.06971933
150	0xbc3b20ba	-0.011421377
151	0xbd7b244b	-0.06131391
152	0x3c8bf6dc	0.017085485
153	0xbc51ec00	-0.012812614
154	0xbcdce2cc	-0.026963614
155	0xbdf18c89	-0.11794383
156	0xbd991cf9	-0.07476229
157	0xbdbc4519	-0.09192867
158	0xbdb07522	-0.08616091
159	0xbb8ea6b3	-0.004353368
160	0x3da71209	0.08157737
161	0xbd33b419	-0.043872926
162	0x3d6b3062	0.05741919
163	0xbd903cf5	-0.07042877
164	0xbd84b278	-0.06479353
165	0x3cff3434	0.031152822
166	0xbd5b518c	-0.053544566
167	0xbd92c4fb	-0.07166477
168	0x3d518553	0.05115254
169	0xbdbdac98	-0.09261435
170	0xbd9d807a	-0.076905206
171	0xbd143868	-0.036186606
172	0x3def4f2f	0.11685025
173	0xbb69c024	-0.0035667503
174	0xbd93b0b4	-0.07211438
175	0x3d65b8c2	0.056084402
176	0x3cb12ca8	0.02162774
177	0xbcf88724	-0.030337878
178	0xbd87a9a5	-0.06624154
179	0xbd6df70c	-0.05809693
180	0x3d88a991	0.06672967
181	0x3ccc0086	0.024902593
182	0xbb4a0c99	-0.0030830263
183	0x3d85ca16	0.065326855
184	0xbbe7f273	-0.0070784627
185	0xbdb66ce3	-0.08907487
186	0x3d104cdb	0.035229545
187	0x3ad93cd8	0.0016573919
188	0x3d8e2fb7	0.06942695
189	0x3dad2b07	0.084554724
190	0xbd6ced4d	-0.057843495
191	0xb8ba7e3e	-8.8926856e-05
192	0xbd2329a7	-0.039834645
193	0xbcee0bb3	-0.029058313
194	0xbd658af3	-0.056040715
195	0xbcf4796b	-0.029843053
196	0x3db9118d	0.09036551
197	0xbc117826	-0.008878743
198	0xbdb83f14	-0.08996406
199	0x3d4f7687	0.050650146
200	0x3c341a5a	0.010992611
201	0xbd163bb2	-0.036678024
202	0xbbfbef41	-0.0076884334
203	0xbcb6f78d	-0.022334838
204	0xbd0c14fc	-0.0341997
205	0xbdacaacc	-0.084310144
206	0xbd4915e1	-0.04909313
207	0x3d0aed13	0.033917498
208	0xbd1d4405	-0.038394947
209	0xbd95d26c	-0.073155254
210	0xbc61ef14	-0.013789911
211	0x3d27d039	0.04097006
212	0x39f93ab4	0.00047536718
213	0x3d29a228	0.04141441
214	0xbd25ae7c	-0.040449604
215	0xbc125bfb	-0.008933063
216	0x3d7835a5	0.060598034
217	0xbc7c2d94	-0.015391726
218	0xbd35fb8b	-0.044429343
219	0xbcc14c6c	-0.023596011
220	0x3c5bcd6a	0.013415674
221	0xbd804693	-0.06263461
222	0xbc2ac470	-0.010422811
223	0xbda18178	-0.07886022
224	0x3da93179	0.08261389
225	0xbd44890c	-0.04798226
226	0x3b88e242	0.0041773627
227	0xbcaa0839	-0.020755874
228	0x3ba78c2b	0.005113145
229	0x3cd18f66	0.025581073
230	0x3da76f8c	0.08175573
231	0xbd32e009	-0.043670688
232	0x3d8580e3	0.06518724
233	0xbe050db6	-0.12993512
234	0xbdabb0ec	-0.083833545
235	0xbd926eed	-0.07150064
236	0xbd627243	-0.05528475
237	0xbe04c6f0	-0.12966514
238	0x3d7977f3	0.060905408
239	0xbcc1565c	-0.02360075
240	0xba0e458e	-0.00054272346
241	0x3cdde3ee	0.027086224
242	0x3c8ee679	0.017443882
243	0xbda515dc	-0.0806081
244	0xbb96e116	-0.004604469
245	0x3e15371f	0.14571808
246	0x3d67a88c	0.056557223
247	0x3d1291a7	0.035783436
248	0x3d651afa	0.05593393
249	0x3d061ff3	0.032745313
250	0x3baad051	0.0052128215
251	0x3d30aaba	0.043131568
252	0x3dda17fc	0.10649106
253	0x3d13218d	0.03592067
254	0xbd85514d	-0.065096475
255	0xbd131d04	-0.035916343

layers.layer_3.bias f4 [128]
0	0x3d456e2d	0.048200775
1	0xbdeaf934	-0.11473313
2	0x3c785c7b	0.015158768
3	0x3d6a60c5	0.057221193
4	0xbd99d902	-0.07512094
5	0xbd28cc56	-0.041210495
6	0xbd024513	-0.031804156
7	0x3db7b206	0.08969502
8	0x3cbede74	0.023299433
9	0xbcf0514c	-0.02933564
10	0xbd290e83	-0.041273605
11	0x3cd70862	0.026249114
12	0x3d965814	0.07341018
13	0x3d8f7589	0.0700484
14	0xbdc234db	-0.09482738
15	0x3c7d3a2f	0.015455767
16	0x3de4efab	0.111785255
17	0xbd54351c	-0.05180846
18	0xbdceba30	-0.10094106
19	0xbceba3ee	-0.028764691
20	0xbd40db58	-0.047084183
21	0x3da0e582	0.07856275
22	0x3d6f3306	0.05839827
23	0xbd2bf36a	-0.041980185
24	0xbd6e9afa	-0.058253266
25	0xbd9b4ea3	-0.07583358
26	0x3c5f866a	0.013642887
27	0x3b764495	0.00375775
28	0x3d801a13	0.06254973
29	0xbcea3f8e	-0.028594758
30	0xbc38722b	-0.0112576885
31	0x3da6e0be	0.08148335
32	0x3dbb8546	0.09156279
33	0x3d2b250b	0.041783374
34	0xbdbe9ace	-0.093068704
35	0x3c790c06	0.0152006205
36	0x3d7d7f71	0.061889116
37	0xbd2b3534	-0.041798785
38	0xbd84fd05	-0.06493572
39	0xbd9d9dbb	-0.076961
40	0xbc2c132d	-0.010502619
41	0x3d892f71	0.06698502
42	0x3d983762	0.074324384
43	0xbc46016d	-0.012085301
44	0xbd9b59cc	-0.07585487
45	0xbe0ffe71	-0.14061905
46	0xbc664276	-0.014053931
47	0x3cd05702	0.025432114
48	0xbd3277d5	-0.043571312
49	0x3dac890b	0.08424576
50	0x3cefa195	0.029251853
51	0x3d2bd220	0.041948438
52	0xbde388f9	-0.1111011
53	0x3c403b16	0.011732837
54	0x3b11813a	0.002220227
55	0x3cb768d3	0.022388851
56	0xbd974dd0	-0.073878884
57	0x3d8ed64a	0.06974466
58	0x3cad8b19	0.021184491
59	0xbc58cfce	-0.013233138
60	0x3d157f5b	0.03649841
61	0x3bef589b	0.0073042638
62	0x3d0e03c2	0.034671552
63	0x3cebadbf	0.028769372
64	0x3daedf4a	0.08538683
65	0xbd00b9a0	-0.031427026
66	0xbdb219d6	-0.08696334
67	0x3d4bc8e1	0.04975212
68	0xbd749fc6	-0.059722684
69	0xbd0678c6	-0.032830022
70	0x3c08e59b	0.008355523
71	0xbd09470b	-0.033515017
72	0xbd8bfb45	-0.06835035
73	0xbc3b1309	-0.011418113
74	0xbd8317f6	-0.064010546
75	0xbd9396f2	-0.07206525
76	0x3cd6a1b2	0.02620015
77	0x3c906f46	0.017631184
78	0xbd056956	-0.03257116
79	0xbdaf45f6	-0.08558266
80	0x3b459e76	0.0030154265
81	0xbc792e2a	-0.01520876
82	0x3d411b33	0.04714508
83	0xbdda4359	-0.10657377
84	0xbd6b6eeb	-0.057478826
85	0xbd53c3ce	-0.051700406
86	0xbcd7a1a2	-0.02632219
87	0xbb2250e5	-0.0024767455
88	0x3cd7da03	0.026349073
89	0x3c35f5b7	0.011105946
90	0xbddb0535	-0.106943525
91	0x3d03227c	0.03201531
92	0x3dd57920	0.104234934
93	0x3defdfab	0.11712583
94	0x3d8973fd	0.06711576
95	0xbd2d1b29	-0.04226223
96	0xbd3d7f71	-0.046264116
97	0xbd91be49	-0.07116372
98	0x3dab8330	0.083746314
99	0x3dc69880	0.09697056
100	0xbd3140bf	-0.043274637
101	0xbd1e97e2	-0.038719065
102	0x3d4550da	0.04817281
103	0xbda78a46	-0.081806704
104	0xbd1bec3d	-0.03806709
105	0xbd5b846f	-0.053593095
106	0x3c0e0024	0.008667026
107	0xbae2d9dc	-0.0017307359
108	0x3c380207	0.011230952
109	0x3c57ee6d	0.013179404
110	0x3cb6b29e	0.022301968
111	0x3d88c733	0.06678619
112	0x3d83947c	0.064248055
113	0x3d129a51	0.0357917
114	0xbcfa1f48	-0.030532494
115	0x3d15a70d	0.036536265
116	0x3cc651dc	0.024208955
117	0x3c9c393f	0.019070266
118	0x3dbeef9b	0.09323045
119	0xbd627095	-0.055283148
120	0xbd3d0f93	-0.04615743
121	0x3da6214e	0.08111821
122	0x3cc2a05f	0.023758112
123	0x3dbe611e	0.092958674
124	0xbd8ffcf0	-0.07030666
125	0xbcf24171	-0.02957222
126	0xbd004637	-0.031316962
127	0xbc6c610c	-0.014427435

layers.layer_4.weight f4 [128, 128]
0	0xbdbe8856	-0.09303348
1	0xbcfedba7	-0.031110598
2	0xbdcff178	-0.101534784
3	0xbc843112	-0.01613668
4	0x3dfff5b0	0.12498033
5	0x3cac03db	0.020997932
6	0xbc3ede64	-0.011649702
7	0xbd2eb0b7	-0.042648997
8	0x3d9a1903	0.07524302
9	0x3d1b0b63	0.037852656
10	0xbd9c1d8d	-0.07622824
11	0xbd89cb30	-0.06728208
12	0xbd9ea5a5	-0.07746438
13	0x3dbabf16	0.09118478
14	0x3dcc74ad	0.09983192
15	0xbac0a1b7	-0.0014696632
16	0xbc0ece7b	-0.008716221
17	0xbd4b5149	-0.049638066
18	0xbc9354bb	-0.017984739
19	0xbb807e38	-0.0039212964
20	0xbd08b80e	-0.033378653
21	0x3d5619b8	0.05227062
22	0x3d3adaa2	0.04561866
23	0x3d04b88a	0.032402553
24	0x3d972619	0.073803134
25	0x3dcff248	0.10153633
26	0xbd6ff34a	-0.058581628
27	0x3d793164	0.06083812
28	0x3cdc873c	0.026919954
29	0x3d59f669	0.05321351
30	0x3d615607	0.055013683
31	0xbd3663b2	-0.04452867
32	0xbda306cd	-0.079602815
33	0x3b988374	0.0046543423
34	0xbd2791e5	-0.04091062
35	0x3d3b2c14	0.045696333
36	0xbd2ab89e	-0.04167997
37	0x3c155c4e	0.009116245
38	0x3cf9e7c2	0.030506019
39	0xbd9e6838	-0.07734722
40	0x3d0edec5	0.03488042
41	0xbc01fcbc	-0.007933792
42	0xbca9d71f	-0.02073246
43	0xbc80fa09	-0.015744226
44	0x3da468e2	0.08027817
45	0x3d9c7c7a	0.076409295
46	0xbd0f59e8	-0.03499785
47	0xbbf1a283	-0.0073741092
48	0xbd991070	-0.07473838
49	0x3cb21c9f	0.021742163
50	0xbd5cef27	-0.05393901
51	0xbbe36726	-0.0069397865
52	0x3cfd7984	0.030941732
53	0xbb786721	-0.0037903266
54	0x3de6b234	0.11264458
55	0x3b455d64	0.003011548
56	0x3d26c3fa	0.04071424
57	0xbd2b5080	-0.041824818
58	0xbd95d876	-0.07316677
59	0x3dbd5231	0.092441924
60	0xbc4c21af	-0.012459203
61	0xbca858b4	-0.02055011
62	0x3d67a6b5	0.05655547
63	0xbcec163b	-0.028819194
64	0x3d384f0b	0.044997256
65	0xbdb58553	-0.0886332
66	0xbd5834b6	-0.052784644
67	0xbd6befbb	-0.05760167
68	0x3c545bf2	0.012961375
69	0x3d44a6dc	0.048010692
70	0x3bd06c8a	0.006360595
71	0xbc6268ea	-0.013818959
72	0x3d740f83	0.059585106
73	0x3aadb842	0.0013253766
74	0xbd12950c	-0.035786673
75	0x3dc251e8	0.094882786
76	0xbc3d0938	-0.011537842
77	0x3d314ee6	0.043288134
78	0x3e0ab544	0.1354571
79	0x3b6a8cfe	0.0035789604
80	0x3b07e1ec	0.0020734025
81	0x3d347e76	0.044065915
82	0xbaae72ae	-0.0013309324
83	0xbc854008	-0.016265884
84	0x3d183a5f	0.037165042
85	0xbc81c348	-0.015840188
86	0xbcc9d87b	-0.024639359
87	0xbd90d3ac	-0.07071623
88	0xbc1528d3	-0.0091039715
89	0x3dd9db5a	0.10637541
90	0x3d87d2f2	0.066320315
91	0x3e1d3766	0.15353164
92	0xbd4d1906	-0.050072692
93	0xbcf42a61	-0.029805364
94	0x3bda26c6	0.006657454
95	0x3ccd8147	0.025086058
96	0xbd1623c3	-0.0366552
97	0x3d5f0e9e	0.0544573
98	0xbc908b45	-0.017644534
99	0x3d04c138	0.03241083
100	0x3d190c13	0.03736503
101	0x3dbb4e9f	0.09145855
102	0xbd921d01	-0.07134438
103	0x3d2406b9	0.040045474
104	0xbd34c3df	-0.04413211
105	0x3d53e23a	0.05172942
106	0xbd984161	-0.07434345
107	0x3d34b07a	0.044113614
108	0x3d9b3b18	0.075796306
109	0x3b9647f5	0.0045862147
110	0x3ca7ada1	0.020468535
111	0x3d7c91ce	0.061662488
112	0x3d1d7aa2	0.03844703
113	0x3cacff02	0.021117691
114	0x3dd2ddac	0.10296187
115	0x3ccd76a8	0.025080994
116	0xbd904c44	-0.070457965
117	0x3d334a0d	0.043771792
118	0xbdddd4b0	-0.108315825
119	0x3cfd5204	0.030922897
120	0xbd42cc2a	-0.047557987
121	0x3c3be446	0.011467999
122	0xbd5bf991	-0.053704802
123	0xbbb4ee20	-0.005521551
124	0xbd018824	-0.031623974
125	0xba1d8905	-0.0006009492
126	0xbcd0a92b	-0.02547129
127	0x3db369de	0.08760427
128	0xbd926e93	-0.071499966
129	0x3b68cf63	0.0035524003
130	0xbd7e7ee6	-0.06213274
131	0xbdf568fe	-0.11982916
132	0x3cab15f7	0.020884497
133	0xbc986612	-0.018603358
134	0x3d40806e	0.04699748
135	0x3d14b8f5	0.0363092
136	0x3d9edf78	0.07757467
137	0xbdc09988	-0.09404284
138	0xbdc23beb	-0.09484085
139	0xbd16830a	-0.036746062
140	0xbdc380c0	-0.095460415
141	0x3c528cbd	0.012850937
142	0x3db833f4	0.08994284
143	0x3ca95371	0.02066967
144	0xbd39f9fc	-0.04540442
145	0xbb869dde	-0.0041081747
146	0xbd982f3d	-0.07430885
147	0xbd14444c	-0.036197945
148	0x3c0ed241	0.008717121
149	0xbda0ce01	-0.07851792
150	0x3d558ac1	0.05213428
151	0x3d57ce50	0.05268699
152	0xbd550395	-0.05200537
153	0xbc89ac70	-0.016805857
154	0x3d7edb79	0.062221024
155	0xbd699a25	-0.05703177
156	0xbd9c84f4	-0.07642546
157	0x3cebdba0	0.028791249
158	0x3d2fe58d	0.042943526
159	0x3d052bb1	0.03251237
160	0xbb8466fc	-0.004040597
161	0x3d64f4a6	0.055897377
162	0x3ca9689a	0.02067976
163	0x3dd4914e	0.10379277
164	0x3d207075	0.039169747
165	0xbd5a9a13	-0.053369593
166	0x3d01ae2b	0.03166024
167	0x3db483be	0.0881419
168	0x3d97de90	0.07415497
169	0x3d026fd4	0.03184493
170	0x3d067599	0.032826994
171	0xbb7fd90f	-0.003903929
172	0xbca24653	-0.019808924
173	0x3d591965	0.053002734
174	0x3c171104	0.009220365
175	0xbcf8ba2f	-0.030362217
176	0xbd9bd8d1	-0.07609714
177	0x3d25b5ce	0.040456586
178	0x3d095a0c	0.03353314
179	0x3cd3c2e3	0.025849765
180	0x3de736dd	0.11289761
181	0x3bafaefd	0.0053614364
182	0x3dc170db	0.094453536
183	0xbd8043b0	-0.0626291
184	0x3de12df1	0.10995091
185	0xbbba0040	-0.0056762993
186	0xbd830c5d	-0.063988425
187	0x3c6d4985	0.01448286
188	0x3d48e3a1	0.04904521
189	0x3d94d9f9	0.072681375
190	0x3cb76d2e	0.022390928
191	0xbdb54c0a	-0.08852394
192	0xbdc0ca13	-0.094135426
193	0xbdcf3870	-0.101181865
194	0xbd2a3a5e	-0.04155957
195	0x3d35fded	0.044431616
196	0x3d7064d8	0.058689922
197	0x3d1cf114	0.038315848
198	0xbbf3b0c5	-0.007436844
199	0x3d3af043	0.045639288
200	0x3d05291e	0.032509916
201	0x3cef241f	0.029192029
202	0x3a277453	0.0006387878
203	0x3da48e88	0.08034998
204	0x3d21f3a9	0.039539013
205	0x3bf60d78	0.00750893
206	0x3d47677d	0.04868268
207	0x3d2aa6fd	0.04166316
208	0x3cf73661	0.030177297
209	0x3d0f5bea	0.034999765
210	0x3d8b8e34	0.068142325
211	0xbcd2d405	-0.025735864
212	0xbc3b4e50	-0.011432245
213	0xbd7060a2	-0.058685906
214	0xbd85ebe9	-0.06539137
215	0xbcc39fb1	-0.023879858
216	0xbc29507e	-0.010334132
217	0xbd3dbf28	-0.04632488
218	0x3ca012a8	0.019540146
219	0x3c2d47d2	0.010576205
220	0x3cbceae6	0.023061227
221	0xbdd09acc	-0.10185775
222	0x3bea3b9d	0.0071482197
223	0xbd71a98f	-0.058999594
224	0xbc5b95a8	-0.01340238
225	0xbdab35ac	-0.083598465
226	0x3cdb5b4d	0.026776934
227	0xbdb42b60	-0.087973356
228	0x3d49614c	0.049165055
229	0x3972b299	0.00023145451
230	0xbb4431e0	-0.0029936954
231	0xbd2e86c2	-0.042608984
232	0x3deeb1fe	0.11655043
233	0x3de54aff	0.11195945
234	0x3c94fac9	0.01818599
235	0x3d92b6b3	0.07163753
236	0x3d2ddee1	0.042448882
237	0x3dc6b9a5	0.09703378
238	0x3dd2d96f	0.102953784
239	0x3cb67517	0.02227263
240	0x3d3b5c83	0.045742523
241	0xbdb279f9	-0.08714671
242	0xbdc615c0	-0.09672117
243	0x3ddeecbd	0.10884998
244	0x3d0f5de5	0.035001654
245	0x3a480072	0.0007629461
246	0xbd229f80	-0.039702892
247	0x3d7b35b4	0.061330512
248	0x3dc3e243	0.095646404
249	0xbc60da50	-0.013723925
250	0x3d2b035a	0.041751243
251	0xbd7c084a	-0.061531343
252	0x3d344339	0.04400942
253	0xbd4605bd	-0.048345316
254	0xbb76e937	-0.0037675628
255	0xbc81da2a	-0.015851099

layers.layer_4.bias f4 [128]
0	0x3d6954d1	0.056965653
1	0xbd8c50fd	-0.06851385
2	0xbc6b8c98	-0.014376782
3	0x3da7b37c	0.08188531
4	0x3d841650	0.06449568
5	0xbdbf8a9a	-0.09352608
6	0x3d888aff	0.066671364
7	0x3d27f6d2	0.04100687
8	0x3db663c6	0.08905749
9	0x3db22c69	0.08699877
10	0xbbfb2532	-0.007664346
11	0xbdb353dd	-0.0875623
12	0xbe020e1e	-0.12700698
13	0xbdd89428	-0.105751336
14	0xbd412e91	-0.04716355
15	0x3d777f9c	0.060424432
16	0xbd4fcf4f	-0.050734814
17	0xbce5099a	-0.02795868
18	0x3d875390	0.06607735
19	0xbd339bb3	-0.04384966
20	0x3dad324a	0.084568575
21	0x3de4032a	0.11133416
22	0x3d82108b	0.063508116
23	0xbbbb1ab6	-0.0057099713
24	0xbb4fa906	-0.003168644
25	0xbdb9436b	-0.09046062
26	0x3c8f465a	0.0174896
27	0xbc9c484e	-0.019077446
28	0x3d283ad6	0.041071735
29	0xbd65da90	-0.05611664
30	0xbca10810	-0.019657165
31	0xbc1786d9	-0.009248459
32	0x3db22ef8	0.08700365
33	0x3de3a034	0.11114541
34	0x3d07528e	0.033037715
35	0x3d3db851	0.046318356
36	0x3cae3ad5	0.021268288
37	0xbd55abc3	-0.052165758
38	0xbda92278	-0.082585275
39	0xbcc72659	-0.024310278
40	0x3cae3ac6	0.02126826
41	0x3dca5501	0.098794945
42	0xbc98068a	-0.018557806
43	0xbd21388b	-0.039360564
44	0xbcf1ed81	-0.029532196
45	0x3d19be20	0.037534833
46	0xbd5ae4ce	-0.05344086
47	0x3cfb53a2	0.030679528
48	0xbdd9ed12	-0.10640921
49	0xbd594a82	-0.05304957
50	0x3d1991f5	0.03749271
51	0xbd3da6bd	-0.046301592
52	0xbda7207a	-0.08160491
53	0xbd591e58	-0.053007454
54	0x3d1f714a	0.0389264
55	0x3d9636e8	0.07334691
56	0x3c5191fa	0.012791151
57	0x3d85575f	0.06510805
58	0xbc1dd93f	-0.009634315
59	0xbdfdb412	-0.12387861
60	0x3da253fe	0.079261765
61	0x3d856f7b	0.06515404
62	0x3d3a630e	0.045504622
63	0xbd685e8d	-0.056730796
64	0x3d71d869	0.059044275
65	0xbd9a2f22	-0.07528521
66	0x3d7ba0ca	0.061432637
67	0xbd981ab8	-0.07426971
68	0x3d026357	0.03183302
69	0x3c18b068	0.009319402
70	0xbd03bec8	-0.032164365
71	0xbc89e4f3	-0.016832804
72	0x3d61fa4b	0.05517034
73	0x3cf7ef98	0.030265614
74	0xbd91852f	-0.07105481
75	0xbdd33819	-0.10313434
76	0xbd1fcb3f	-0.03901219
77	0xbd1d9163	-0.03846873
78	0xbc6e35b2	-0.014539169
79	0x3d97b894	0.07408252
80	0x3d16d859	0.03682742
81	0xbce5f002	-0.028068546
82	0xbbc6459e	-0.0060507795
83	0xbc868495	-0.016420642
84	0xbdbfecff	-0.09371375
85	0x3d56f42b	0.05247895
86	0xbd9f9987	-0.07792955
87	0x3d98cf3d	0.074614026
88	0x3d99817c	0.074954
89	0x3bbcdf43	0.0057639196
90	0x3da78d9b	0.08181306
91	0xbd910d23	-0.07082584
92	0x3d446fd5	0.047958214
93	0xbd9bae6b	-0.07601627
94	0xbdd2bbfa	-0.1028976
95	0xbc42e05d	-0.011894313
96	0x3cfeab1e	0.031087454
97	0x3b6b8dc1	0.0035942646
98	0xbdd78f5c	-0.105253905
99	0xbd434dd4	-0.047681645
100	0x3dc49cfe	0.096002564
101	0xbd882b8f	-0.06648933
102	0xbd8c4166	-0.06848411
103	0x3c921a82	0.017834906
104	0x3d842494	0.06452289
105	0x3db43c7e	0.088006005
106	0x3d378aea	0.044810213
107	0x3dd48293	0.103764676
108	0x3db152f0	0.08658397
109	0x3d119cf0	0.035550058
110	0x3db466a8	0.088086426
111	0x3c12d1d1	0.008961157
112	0x3dcd4e88	0.10024744
113	0x3d8d8d6e	0.06911741
114	0x3d0333e5	0.032031912
115	0x3d8d68a1	0.06904722
116	0x3cd209b4	0.025639392
117	0xbcdb5de4	-0.026778169
118	0xbd7aa9b4	-0.061196998
119	0x3d744dcf	0.059644517
120	0xbc9768d4	-0.018482603
121	0xbd8b7232	-0.068088904
122	0xbdaa9f56	-0.08331172
123	0xbbc70380	-0.0060734153
124	0x3d9d6cd7	0.07686775
125	0xbb147c56	-0.0022657118
126	0xbd14ff2b	-0.03637616
127	0xbd79946e	-0.06093257
