spring_damper/Model_parameters/model1.pt (torch, 468891 bytes, 17 tensors)

layers.layer_0.weight f4 [128, 1]
00000000: 0000 5ebf 762a 1a3f 0d4a 3c3f d9ef 083d
00000010: ebf7 d4be 7d23 d1bd ba4f 663f bda2 103f
00000020: fcd1 373e 4901 b7be 28d7 06bf d4aa 873e
00000030: 1aee 553f 0c4b 223f b3ff 22bf 6159 aebe
00000040: 786f 88be 0d9f a8be bf6a 95bd bb45 2abf
00000050: 7260 853e c8f6 2bbf ec0a 6dbf 8999 163e
00000060: 81fd 8ebe c9e1 47bf c647 69be 5d45 213f
00000070: 0ad0 b53e a8cf 37be 73d5 d6be 030c a83e
00000080: 5e85 32bf f98b 39bf fdf5 a7bd 1094 39bf
00000090: b93f 583f 4b20 cbbc 4ab1 62bd 0ec2 59be
000000a0: 562c 433d e609 7e3e e220 5a3f 31c7 9a3e
000000b0: c887 21bf ed7d 703f 66ed 3e3e a76b 35bf
000000c0: 38cd 3c3f 39ea ad3d 782f 643f e3ab abbe
000000d0: df87 5e3f e32b 4dbe 3e71 793f 6210 89be
000000e0: 48d7 b9be 3b94 5f3f 0764 b63e c9d0 0b3f
000000f0: c0cd 66bf 31fa 4dbf 37e3 513e f543 cbbe
00000100: e0a3 37bf 6201 65be ddda 2a3f f3d0 10bf
00000110: 0132 74bf f559 efbe 107b 3a3f aa3f e1bd
00000120: 1d2d d9be 8840 523f a18e b0be fc1e 90be
00000130: baac 3abe 9fc2 59be de0b 81be 31e2 0a3f
00000140: ab46 10bf ca36 f73e ad1e 9d3e a4c9 933e
00000150: 8df7 9a3e 0b58 a8be 6da2 293f df5d 843e
00000160: 8a5c 96be a2e3 75bf 7c14 933e 2e23 72be
00000170: 9982 4f3f a88e 46bd e9db c93c 89bf 51bf
00000180: d748 893e 93ee 4fbf 07b4 583f d559 e83e
00000190: 9365 4e3f ad5a 70be 7c5e 333f ba8b 55bf
000001a0: 658c 92be fb87 ab3e 0fc9 a03e 879c 643e
000001b0: 2bc5 a63e afca a6be 3c47 96be 3e5f 543f
000001c0: 47e3 6d3f 332d b93e 6a5c 7ebe 6ff2 dabe
000001d0: 264b 5d3e 7b07 5f3e eff2 583f f9f2 97be
000001e0: c68b 3d3f 5800 2a3f 667d 143f 3118 44bf
000001f0: 9991 763e 4309 c0be b1c2 413e 99a8 70bf
-0.8671875 0.6022104 0.7355049 0.03343186 -0.41595396 -0.10211847 0.89965403 0.5649832
0.17951196 -0.35743168 -0.5267205 0.2649752 0.8356644 0.6339576 -0.63671416 -0.34052566
-0.26647544 -0.32933846 -0.07295751 -0.6651265 0.26050144 -0.67173433 -0.9259479 0.14707007
-0.27927783 -0.78078896 -0.22781286 0.62996465 0.35510284 -0.17950308 -0.41959724 0.32821664
-0.6973475 -0.72479206 -0.082012154 -0.7249155 0.84472233 -0.024795672 -0.055344857 -0.21265432
0.047649704 0.24808463 0.85206425 0.30230096 -0.6309781 0.9394215 0.18645248 -0.7086739
0.7375064 0.0849194 0.8913493 -0.33529577 0.8692607 -0.20036273 0.9743842 -0.26770312
-0.3629706 0.87335557 0.3562319 0.54615456 -0.901577 -0.80459887 0.20496832 -0.39700285
-0.7173443 -0.22363809 0.6674021 -0.5656883 -0.953888 -0.4674832 0.7284403 -0.10998471
-0.4241723 0.82129717 -0.34483817 -0.2814864 -0.18229952 -0.21265648 -0.25204366 0.5425139
-0.5635783 0.48283988 0.30687466 0.28864777 0.3026699 -0.3287967 0.6626347 0.25852868
-0.29367477 -0.96050465 0.28726566 -0.23646232 0.8105865 -0.04847589 0.024640994 -0.81932884
0.26813385 -0.8122341 0.846497 0.45381036 0.8062374 -0.2347209 0.70066047 -0.8341633
-0.28622738 0.33502182 0.31403396 0.22325335 0.32572302 -0.3257651 -0.29351223 0.8295783
0.9292492 0.36167297 -0.2483994 -0.42763087 0.21610698 0.21780197 0.8474569 -0.2967756
0.740414 0.66406775 0.5800384 -0.76599413 0.24078979 -0.37507066 0.18921925 -0.9400726

layers.layer_0.bias f4 [128]
00000000: 6c92 85bf c858 16be 893d 553f 5a0b 1cbd
00000010: 0458 cf3c 1763 583f ff86 753e e9d0 e03e
00000020: f5ea 383f 9f5a 283f dad1 ca3d 8df9 53bf
00000030: 140b 57bf e44f e0be 0798 523e 2067 3ebe
00000040: 3603 983f f1de b43e 0154 ac3e 4b17 4dbf
00000050: 88a9 58bf 22f6 54bf abd6 493e 3985 163c
00000060: 529b 8e3f f2c2 2dbf b954 a03e 559d 6a3f
00000070: b1a5 89be 9e77 55bf dc70 85be 5b81 43bf
00000080: 2382 433f 8999 8dbe 176e 14bf 7957 52bf
00000090: e2fe 69bf 27ae b0be 1f92 0ebe 6805 13bf
000000a0: c08c 2fbf 6e1d e63e eb7c 85bf c2a0 41bf
000000b0: 4c0f f6bd 6926 123f 91c6 1bbd e8c5 5dbd
000000c0: af1d 173f f82c 873e 401d a83e 6214 543f
000000d0: 330a e7bb 8dc2 a1bd 989e 863f 4c9d 66bf
000000e0: 2af5 3f3e dd5a 76bf 737e bd3d cd18 31bf
000000f0: 1334 873f afa1 383e bec2 873e 20ae 7bbf
00000100: 8897 773e 21a2 b13d 1219 fdbe 0eea 683d
00000110: cf98 19bf 5012 aebe 232d c43e 212f 823f
00000120: f19c 3d3f 6383 953e 60ca 8e3f 0dda 8f3f
00000130: 212e 22bf f971 e6bd a18f 4d3f a550 8e3e
00000140: 0056 25be 93cc c53d 210c 8f3f 2315 20bf
00000150: 787a 133f 3fa1 883f 603a 7d3f 7ce1 c4be
00000160: 5711 ebbe 91d1 b1bd a715 c7bd 3649 09be
00000170: 2ffb da3e f9b6 e63e 0fd8 143f 3418 4c3f
00000180: c89d 78be 9d67 41bf bb05 02bf 2226 82be
00000190: b3fb 55bf b60a 6ebf 3fc3 773f bb9f 92be
000001a0: ac0a 3f3f 340e 473f 8bd3 5bbf 130f 623e
000001b0: 6402 2cbf 43af 813f 9b7b 783f ddf0 273f
000001c0: 27da 883f 512d 16bf a1cc 843e 5422 79bf
000001d0: a828 6a3e 9fa4 0dbe 516f 103f 3aa1 473f
000001e0: 379c cb3e 634f 1bbf 7379 d4be 339a 3a3f
000001f0: 08e6 1d3e 2f6f 953f ba08 6d3f a3bb c43e
-1.043531 -0.14682305 0.8329702 -0.038096763 0.025310524 0.845262 0.23977278 0.43909386
0.72233516 0.65763277 0.09903307 -0.8280266 -0.8400128 -0.43810952 0.20565806 -0.18594027
1.187598 0.3532634 0.3365784 -0.8011367 -0.84633684 -0.8318807 0.19710796 0.009187036
1.114115 -0.6787559 0.31314638 0.9164632 -0.26884225 -0.83385646 -0.26062667 -0.76369256
0.7637045 -0.276562 -0.57980484 -0.8216472 -0.91404545 -0.34507868 -0.13922928 -0.57430124
-0.6857414 0.44944328 -1.0428747 -0.7563592 -0.120146364 0.5708986 -0.038031165 -0.054143816
0.5902967 0.26401496 0.32834816 0.828436 -0.0070507764 -0.07898436 1.0517149 -0.90083766
0.18745866 -0.96232396 0.09252634 -0.6917847 1.0562767 0.18030427 0.26515764 -0.9831257
0.24178898 0.08673502 -0.4943319 0.056863837 -0.5999879 -0.33998346 0.38315687 1.0170633
0.740676 0.29201803 1.115551 1.1238419 -0.6335164 -0.11252207 0.80297285 0.27795902
-0.16146088 0.0965816 1.1175576 -0.6253225 0.5760875 1.0674208 0.989172 -0.3845328
-0.45911667 -0.0868255 -0.09720927 -0.13406834 0.42769763 0.45061472 0.5814218 0.7972443
-0.24278939 -0.75548726 -0.50789994 -0.25419718 -0.8358719 -0.92985094 0.96782297 -0.2863749
0.7462566 0.7775605 -0.85869664 0.22076063 -0.6719115 1.0131611 0.97063607 0.65601903
1.0691575 -0.586629 0.2593737 -0.97318006 0.22867072 -0.13832329 0.56419855 0.7798039
0.3976762 -0.6066801 -0.41498908 0.7289154 0.15419781 1.1674556 0.9259144 0.38424405

layers.layer_1.weight f4 [128, 128]
00000000: 97c0 853d 2a7e 743d d854 b3bc bc73 43bd
00000010: 977a 883c 1a0a 7fbe 4a74 e5bc 9c57 3e3a
00000020: 7190 05bc 4fee 86bd cbd4 80bd bfa2 09be
00000030: 9ae7 72bc 47ea 3cbd c409 36bd e949 533d
00000040: 8379 1d3d acdb 94bc 9df1 86bd eb8a c1bd
00000050: 123c 10be d172 65bd 382e 803d 8c56 c6bc
00000060: 36fe 863d 056b a3bd 9899 763b 9628 05bd
00000070: 86a9 77bd ec8d 703b 3be2 873d 14c2 d4bd
00000080: 2382 1db7 4a28 cdbc 28d0 873d 3f87 863d
00000090: c572 8d3d a61c 903c a8e8 28bd 523d 4f3c
000000a0: d65e 323e c6ed e83a b45c 61bd 8ec6 503d
000000b0: 8c08 913d 942a 1c3d 04ee 923d fdf0 75bc
000000c0: 7090 20bb 94a7 29bd 7f4c 8fbc 82f5 3fbd
000000d0: 0c35 ac3d 2144 02bd e7dd 92bd 2f6d 5dbd
000000e0: 5102 3abd 6ea1 b83d 4ce4 16bc 1b46 1cbd
000000f0: 9a61 d0bc 7573 09bd 0edd d53b 3bdf 563d
00000100: ca5e d23c e80c be3d 39fb d13c 1c78 853d
00000110: b7b3 b8bd b55e 24bd 109f 8a3d 5139 86be
00000120: 753c 2f3d 8dc0 16bc 39d9 de3b 8dbb 1a3e
00000130: 6589 5abd 509a 753d c504 6a3d 9a22 3fbb
00000140: 8d75 0abd 33f3 a5bc afda 91bd 38a1 dbbd
00000150: f5ed 8c3d d90d aa3d f08e 733c a509 973c
00000160: cdb3 043d ec5a fa3c f3e2 a139 5167 643d
00000170: e0a8 8cbd d916 04be e91d 913c 6f1f 9fbd
00000180: 666b 9abb 49ba 993d d519 503d 3a7d fabb
00000190: c9e4 17bd 75ac bb3d c18a 863d f06a a1bc
000001a0: a046 f33a abf6 a93d 68c6 c8bb 189c 35bb
000001b0: 6d51 e63c df3d 023e 1431 493d 2036 9c3c
000001c0: 13c2 853d 121b 9abc 44c2 b53c be70 a4bc
000001d0: 42aa 683c a502 0bbd bd13 853a 43f0 4abd
000001e0: ec36 62bd 51f5 b63d ff6c 1a3d b48f 54bd
000001f0: c3d6 9abd b9c2 ed3b 69fe 0e3c 3e59 7abd
00000200: 0e91 9ebd 6476 94bd 3337 45bc 5442 163e
00000210: d1d2 f739 524a 79bd 823a 96bd 131f 513c
00000220: e155 8f3d 70f3 d9bc c32b b1bd 19e7 82bd
00000230: c76b b3bc effc 04bd 6b9d a9bd aa9e 2cbc
00000240: 5e93 a33d 23d6 82bd d525 20be 33d4 86bd
00000250: d8cc 9e39 4abd 9e3d d0c0 a8bd 285c 4c3d
00000260: fbab 7b3d b704 19bc c4d9 0bbd 02d5 4dbd
00000270: 08f9 d03c cc7a 273d 8d1d e5ba e908 52bc
00000280: 76d6 883c 27de 11bc 1630 ab3c 6dc2 d2bc
00000290: 369d da3c adb2 ca3b 927e 063d 7359 81bd
000002a0: 948d 533e 873f 473d b102 ecbc f029 2dbd
000002b0: bbfb 8e3d 14dc 10bd 3cac 2f3d e06d b6bd
000002c0: 348f 843d 39f4 a63d 7779 36bd 7593 2ebc
000002d0: 1ed3 e4bc d0a6 683c 6dcd a03d 8c0a b4bd
000002e0: a3da 7abd 643d eb3c 41c8 863d baee 2fbc
000002f0: d306 ff3c b360 e0bc 7102 eebb a89c 5abd
00000300: 11a0 6dbd 18a3 42bd 9c3f 28bd 63a3 1a3d
00000310: 330b 923d 0cde 883d 5076 243d 0364 cdbd
00000320: dc8e 32bd 9de6 10bd 4e13 84bd 97a4 38bd
00000330: 4d7d 3c3d 822b a7bc 4484 6ebd 1fe5 8abd
00000340: 552e 0cbc fe57 233d 49f6 e4bc 5afe a6bd
00000350: 86e2 353d 0c3e 73bc 8207 283c bdf2 bcbc
00000360: 2303 aa3d 0df3 3d3d f9a5 553d dfb0 473d
00000370: fc4b 443c 985b 1fbe 7904 633c f439 d73c
00000380: c14f e73b 53dc 87bd 1399 41bd 9d31 a2bd
00000390: 50e6 91bd b257 023d f8ea 7dbd d4b5 8fbd
000003a0: 77ed 9ebc 4b15 ac3d 7c01 cb3b e60b 31bd
000003b0: e786 56bd dffd 1e3d 712c 6bbd 4d49 503d
000003c0: 8dbf 58bd 1f22 8b3c e53f 1639 e5e2 a93d
000003d0: b719 43bd 0941 a9bd 0121 713c 9dc0 98bc
000003e0: a64c 98bb 0b6f f13c babb 37bd 425f 82bb
000003f0: c54f 563d 035f 58bd 872a e13c 289a 603d
0.06530874 0.059690632 -0.021891043 -0.047717795 0.016660018 -0.24906197 -0.028009553 0.00072609796
-0.008152113 -0.065884225 -0.06290587 -0.13440989 -0.014825726 -0.04612186 -0.044442907 0.051584158
0.03844596 -0.018171154 -0.06589053 -0.094503246 -0.14085415 -0.0560177 0.062588155 -0.02421119
0.06591456 -0.07979397 0.003762817 -0.03250941 -0.060464405 0.0036705686 0.06634947 -0.1038858
-9.388229e-06 -0.025043625 0.066314995 0.06568765 0.06906656 0.017591786 -0.041237503 0.012648897
0.1741899 0.0017771057 -0.05502005 0.050970607 0.07081708 0.038126543 0.07174304 -0.015011069
-0.0024500154 -0.04141958 -0.01749253 -0.046864994 0.084085554 -0.031803254 -0.07171231 -0.054059204
-0.045412365 0.09015165 -0.009209704 -0.038152795 -0.025437165 -0.033557374 0.006526596 0.052458983
0.025679965 0.092798054 0.025632488 0.0651705 -0.09018653 -0.040129382 0.0676862 -0.26215604
0.042782266 -0.009201181 0.0068007973 0.15110607 -0.053353686 0.059961617 0.057133455 -0.0029164911
-0.03380351 -0.020257568 -0.07121789 -0.107241094 0.06881324 0.083034225 0.014865622 0.018437216
0.032398034 0.030560933 0.00030877403 0.055762593 -0.06868148 -0.1289934 0.017714458 -0.07769667
-0.00471251 0.07506234 0.050805885 -0.0076443227 -0.03708342 0.09163753 0.06569434 -0.019704312
0.0018560477 0.08299001 -0.0061271675 -0.0027711447 0.028114999 0.12718914 0.04911907 0.019068778
0.06531157 -0.018811736 0.02218736 -0.02007329 0.014200749 -0.03393807 0.0010152977 -0.049545538
-0.05522816 0.08933509 0.037701603 -0.05189486 -0.07560494 0.0072558788 0.008727648 -0.061120264
-0.07742511 -0.07249144 -0.012037086 0.1467374 0.00047268582 -0.060861893 -0.07335378 0.012763756
0.06998802 -0.026605338 -0.08650925 -0.06391735 -0.021901978 -0.03246778 -0.08281978 -0.010535875
0.079870924 -0.063884996 -0.15639432 -0.065834425 0.0003028873 0.07750948 -0.08239901 0.049892575
0.06144331 -0.009339503 -0.034143224 -0.05025197 0.025509372 0.040888593 -0.001748012 -0.012819507
0.016703825 -0.008903063 0.020896953 -0.025727475 0.026686292 0.0061858506 0.03283555 -0.06315889
0.20659477 0.04864457 -0.028809877 -0.042276323 0.069816075 -0.035366133 0.042888865 -0.08907676
0.06472626 0.081520505 -0.04454943 -0.010655274 -0.0279327 0.014199927 0.07851682 -0.08791074
-0.061243664 0.028715797 0.06581164 -0.010738069 0.031131184 -0.02738986 -0.0072634746 -0.053372055
-0.05801398 -0.04751882 -0.041076288 0.037753474 0.07131042 0.06682977 0.040151894 -0.10028841
-0.043593273 -0.03537618 -0.064489946 -0.04507884 0.046017934 -0.020406488 -0.058231607 -0.06781983
-0.008555968 0.039878838 -0.02794947 -0.081539825 0.044405483 -0.014846336 0.010255696 -0.023064965
0.083013795 0.04637437 0.052160237 0.04875266 0.011981007 -0.15562284 0.013856047 0.026272751
0.007059068 -0.066338204 -0.047265124 -0.07919619 -0.07124007 0.031821914 -0.06199166 -0.07017103
-0.019400341 0.08402499 0.0061952453 -0.043224238 -0.052374747 0.03881633 -0.05741543 0.050851155
-0.052917052 0.016984044 0.00014328917 0.0829523 -0.047631945 -0.082643576 0.014717341 -0.018646533
-0.004647809 0.029471895 -0.044856764 -0.003978641 0.052322168 -0.052824985 0.027486099 0.054834515

layers.layer_1.bias f4 [128]
00000000: 9a3f 583d 1319 1abd f5d7 723d ead5 64bd
00000010: d8f1 3e3d 9fbb 91bc dc35 56bd b221 03bc
00000020: 8c2a 09bd 1779 a7bd cadd 84bc b65b 383d
00000030: b856 aebd 004d 9fbd 7ecc e4bc 95c9 d5bc
00000040: 8c88 983d e70d 6c3c 77c9 4d3d 22bd b73b
00000050: ccf3 8e3d 378c a03d 54aa b83d 9c0e 493d
00000060: 4096 86bd 9edf bf3d 2770 d83c 7b06 9cbd
00000070: 26f5 e0bc ab1e 9fbc 5b57 b3bc ed88 89bd
00000080: 0cb1 8e3b 68e6 9ebc 2fbe 10bd 9767 87bd
00000090: c1d5 95bd d77c 98bd 5153 3abd 5907 5f3d
000000a0: f4f5 e6bb 8438 35bd 9f42 34bc f5b6 813b
000000b0: 1b7f 0dbc f2c6 f43c e770 273c db64 3ebd
000000c0: 0a2a 82bd bb6b 60bd 8e2f ff3c 331e a43b
000000d0: 655e 48bd 65c4 5fbd 240e 0a3d 0c07 2d3c
000000e0: 0f7a 50bc ebf3 3b3d d181 b43d 7730 eebc
000000f0: 9e63 103d 165e 9cbd 84c9 83bd 3b3d 7cbc
00000100: be63 5b39 432a 0c3c 6610 b1bd 0e5a 06bd
00000110: b870 0e3d 2aa0 7dbd 1295 9abd 2968 4c3c
00000120: 6482 31bc f7ef 77bd 1bc7 713d 6e43 45bd
00000130: adaf 80bd 96ea 7f3d eb39 ac3d 547c e6bb
00000140: d11e 8d3d 7c58 503c d832 3b3d 1f48 06be
00000150: a519 cf3c 52ea 7abd e538 a1bd e64f da3c
00000160: 9db8 b13d c22c b63d b8c0 5f3d d7b2 83bd
00000170: 5c8a c93c f22d 343c 0dc0 173d b708 80bc
00000180: 6764 853b f8a6 9dbd c015 1e3d 26c5 14bc
00000190: 198b d63c c0c8 8abc ef1b ed3c f9a8 65bd
000001a0: 8991 a5bd c012 323d 838e 143d 60cf 3cbd
000001b0: 9005 933d 4c73 713d 68c5 2fbd 0d25 8ebd
000001c0: 9c20 9dbd 137a 8c3d 5028 99bd 4511 a53d
000001d0: 5519 69bd c034 4dbd 91ba 9cbd fe01 eb3c
000001e0: 6cb1 953c 7df3 e53c ce21 8bbd 4301 913d
000001f0: 394f 0d3d d3fb a6bd 7fbe 6dbc 6b86 c5bc
0.05279503 -0.03762157 0.059287984 -0.055868067 0.04661736 -0.01778966 -0.052297458 -0.008003639
-0.03348784 -0.08177393 -0.016219039 0.045009337 -0.08512634 -0.077783585 -0.02792954 -0.026097098
0.07447919 0.014407611 0.05024096 0.005607263 0.06980094 0.07839244 0.090168625 0.0490862
-0.06571627 0.093688235 0.026420666 -0.076184236 -0.027460646 -0.019423803 -0.02189224 -0.0671557
0.0043546017 -0.019396976 -0.035337623 -0.06611555 -0.07316161 -0.07445686 -0.045489613 0.054450367
-0.007048363 -0.04424335 -0.011002212 0.0039585778 -0.008636261 0.02988002 0.010219789 -0.046482902
-0.063556746 -0.05479024 0.031150606 0.005008483 -0.048918147 -0.054630656 0.03370489 0.010560762
-0.012724414 0.045886915 0.08813823 -0.029075844 0.035251252 -0.07635133 -0.064349204 -0.015395458
0.00020922624 0.008554998 -0.08645706 -0.032800727 0.034775466 -0.061920322 -0.07547964 0.012476006
-0.01083431 -0.060531583 0.059027772 -0.04816001 -0.062835075 0.062479578 0.084094845 -0.007033864
0.068906434 0.012716409 0.045702785 -0.1311345 0.025280783 -0.06125862 -0.0787218 0.026649427
0.0867779 0.088952556 0.05462715 -0.06430595 0.024602108 0.010997282 0.03704839 -0.015629156
0.004070807 -0.076978624 0.03859496 -0.009080207 0.026189374 -0.016941428 0.028943984 -0.056069348
-0.08084399 0.043474913 0.036268722 -0.046096206 0.07178795 0.058947846 -0.04291287 -0.069406606
-0.07672235 0.06859221 -0.07478392 0.080599345 -0.056908924 -0.050099134 -0.07652772 0.028687473
0.018273078 0.028070206 -0.06793557 0.07080319 0.03449938 -0.081535004 -0.01451075 -0.024111947

layers.layer_2.weight f4 [128, 128]
00000000: 04b1 8ebd c5ce 1b3c e2ec 383d 83bb 233d
00000010: c5d7 10bd d695 c33d c1c8 4c3e 142c 163e
00000020: 2199 5f3b 72ec 1ebd 633a 513d cb48 3e3d
00000030: 7bcb 83bd 3593 25bd 8547 5fbd d1fd bebc
00000040: 313f c2bd d791 503b e9d8 533d 3f77 c13d
00000050: 564d 67bd 6ec1 58bd eab2 24bc ca3d 4cbd
00000060: b0e7 0dbd f4b2 983d 0b15 2abd e877 643d
00000070: 5a58 cd3b 6e60 313d 3222 6e3d aa82 b43b
00000080: bd3b 23bd 8526 fcbc 564d e7bc 3a53 ef3d
00000090: ca5a 153e c4c4 973d 5957 a33c ed6e 613c
000000a0: 13bb 803d 4415 3f3e 3ba4 d5bc c8bb 7c3b
000000b0: b2f9 e73c 94d1 20bc 80d7 f13d 017e 3e3d
000000c0: 2453 4c3c 8ba3 56bd 62fc 623d bc7e 01bd
000000d0: 7fe9 553c 9f54 8abd 202f 2ebd ca16 ad3c
000000e0: b6e2 6b3c 5da8 bc3d 2604 87bc 563a 0f3d
000000f0: 6da8 b5bc 628c 9cbc f22e 003e 3401 a9bd
00000100: c002 64bd b611 f2bd 47f6 1abd d50c 6ebd
00000110: 041f a3bc e247 883d 963d ab3d ae64 93bd
00000120: b908 5ebd 3d64 f73c 0741 7a3d 3eb8 4ebd
00000130: f238 aabd 058b 873d dc36 9dbd 38fb 8e3d
00000140: 1f68 803d 469e 703d de66 60bd e411 4ebd
00000150: 0fcb 4f3c 7fcd 823c b547 11bd 99c9 a8bd
00000160: 8521 13bd e68c d43d c42b 823d 4646 04bc
00000170: aa91 093c 41a0 b33d 6a3f febb 1693 00bd
00000180: fb03 57bd b8ce 6d3d 6041 c33c 19c0 e4bc
00000190: 7cd2 0ebe fa6e ca3c 4c3c 70b8 914e 783d
000001a0: e860 9ebc 2432 4ebd be95 ee3c 5cac fc3b
000001b0: 36a5 78bd 3c8b 2d3d aab3 1a3d 3eb0 ee3c
000001c0: c503 053e 55b2 743d 1b99 203d 6567 fe3d
000001d0: 4403 063e 52cf 86bd e301 8dbd f211 1c3d
000001e0: 820c 06bd 635c 153d c5f3 47bc 1be4 0d3d
000001f0: 1057 b33b d3a8 3b3d 088c 563c 7c0c 74bd
00000200: e2e0 903c 66e8 a13d aca3 8a3b 3e0d 543d
00000210: f7f1 d7bc b619 183d af74 033e 5382 4ebd
00000220: d454 d8bc af85 f5bc 9028 9a3c a273 bbbc
00000230: fafd 9f3d 1f35 ff3b bc06 9dbd 86da 813c
00000240: 43b7 9b3d 7fd7 e6bd 1cd9 84bc 3d9d cf3d
00000250: 8605 c7bc 63a8 5cbd 1c0a cf3a 5672 57bc
00000260: 66ed 113d 700f c93d ef35 943c 70d0 9bbd
00000270: 47cf 98bd 855f 98bd 1041 70bd f50b 333b
00000280: c3d8 01bc 6188 633d cd6e 163c 8537 3a3d
00000290: b8a0 003e a89c 6d39 c670 4ebd 801c 223d
000002a0: 2708 0e3d 1a37 6a3d 3af7 80bd a711 80bc
000002b0: 88c2 c0bd f255 0c3d 0a4f b03d 4df0 763d
000002c0: 0bae 5bbd d3b0 2a3d a5ca 043d 07ed 25bd
000002d0: 1334 b0bd 168f c13c 5a36 41bd 04f2 81bd
000002e0: 038d 47bd ff4f d73c fbce bb3d 69de 9dbc
000002f0: 3877 b0bc 70c3 4b3d b963 713d c0ac 113d
00000300: 7030 bbbc 41c8 8e3c 6ac5 82bd 4390 e6bc
00000310: 67f8 0a3d 3d3d 673d 4687 8cbd ff4d c0bc
00000320: 0d5a 46bd ea5d 32bd 9684 85bd 8ba4 b03d
00000330: 69ff 8ebc 72a3 9c3d 6f05 a2bc 42fd 573c
00000340: dbcf 6c3d 67e0 20bd 8684 a83c 40fd 26bd
00000350: aa95 83bd 66e3 d53d 6fe7 d13c 936b e0bc
00000360: 77d6 9cbd f576 53bc 5f7e 3bbd 4fa2 94bc
00000370: 5c73 503d 8656 c73d c234 413b 3af0 4e3d
00000380: 0cfd fd3c 0def 7bbd 3cb4 6d3d 1e40 a13d
00000390: 1acd 0dbe f4fe d03d 0f5c a23c 5a38 373d
000003a0: 6805 aa3d 07e4 a9bd be9e cfbc 2330 193d
000003b0: d1dc 73bd c726 a03d 6b76 9abc 70a2 f5bc
000003c0: 3eb4 a23d 8acf 5cbd 1429 8fbd 6c6f 02bd
000003d0: 3c06 f03c 0e1b 29bd 046d 68bd 3a64 da3c
000003e0: 8fac 0bbd 8d6d 243d 0510 593d d1cc d8bc
000003f0: a76c 3abd 56ea 00bc 18e1 a7bd a10b 893c
-0.06967357 0.009509747 0.045147784 0.039973747 -0.035362024 0.09550063 0.19998457 0.14665252
0.0034118372 -0.03879971 0.051081073 0.04645614 -0.06435295 -0.04042359 -0.054511566 -0.023314388
-0.09484709 0.0031825209 0.051720534 0.094465725 -0.056470238 -0.052918844 -0.010052422 -0.049863614
-0.034644783 0.074560076 -0.041523974 0.055778414 0.006266636 0.043304853 0.05813808 0.0055087404
-0.039851893 -0.030780086 -0.028235119 0.11685796 0.14585415 0.07410577 0.019939112 0.013759357
0.062856816 0.18660456 -0.026079288 0.0038564075 0.028317306 -0.009815592 0.118086815 0.046506885
0.012470994 -0.05240206 0.055416472 -0.031615004 0.013056158 -0.067544214 -0.04252541 0.02112903
0.014397314 0.092118 -0.01648147 0.034967743 -0.022175038 -0.019109908 0.12517908 -0.082521826
-0.055666685 -0.11819784 -0.037832525 -0.058117706 -0.01991225 0.066543356 0.08361356 -0.071969375
-0.054207537 0.030199165 0.06109717 -0.050468676 -0.08311643 0.06618313 -0.07676479 0.0698151
0.062698595 0.05874469 -0.0547856 -0.05031003 0.01268269 0.015967129 -0.035468776 -0.08241577
-0.03592064 0.10378437 0.06356004 -0.008073395 0.008396545 0.087708004 -0.0077590244 -0.031390272
-0.05249403 0.05805847 0.023834884 -0.02792363 -0.13947481 0.02471112 -5.7276615e-05 0.0606218
-0.019333318 -0.050340787 0.029124137 0.0077109765 -0.060704432 0.042369112 0.037768997 0.029136773
0.12989719 0.059740383 0.039208513 0.12422065 0.13087183 -0.06582512 -0.068851255 0.03810305
-0.032726772 0.03646506 -0.012204115 0.034641366 0.005473025 0.0458153 0.0130949095 -0.05958222
0.017685357 0.079056546 0.004230937 0.05177044 -0.026360495 0.037133895 0.1283748 -0.050417256
-0.026407637 -0.029970972 0.01881817 -0.022882286 0.07812114 0.007788315 -0.076673 0.01585127
0.07603314 -0.11271571 -0.016216807 0.10137413 -0.024294626 -0.053871524 0.001579586 -0.013149818
0.03562679 0.098173976 0.018092124 -0.07608116 -0.0746141 -0.07440094 -0.0586558 0.002732036
-0.007925215 0.055549983 0.00918169 0.045463104 0.1256131 0.0002266044 -0.050400518 0.03957796
0.034675743 0.057181455 -0.06297155 -0.015633417 -0.09412104 0.03426165 0.086088255 0.060287762
-0.053632777 0.04167254 0.03241982 -0.04050925 -0.08603682 0.023627799 -0.047170974 -0.06344989
-0.048718464 0.026283262 0.09170338 -0.019271092 -0.021541223 0.04974693 0.058932994 0.035565138
-0.022850245 0.017429473 -0.0638531 -0.028144961 0.0339283 0.056454886 -0.06861739 -0.023474691
-0.048425723 -0.043546595 -0.065194294 0.08625134 -0.017455773 0.07648362 -0.019777982 0.01318294
0.057815414 -0.039276507 0.020571005 -0.04076886 -0.064250305 0.104437634 0.025623051 -0.027395045
-0.076580934 -0.01290678 -0.045774814 -0.018143801 0.050891265 0.097333 0.002948091 0.050522067
0.031004451 -0.061507273 0.058033213 0.078735575 -0.13847771 0.102048784 0.019819288 0.044731475
0.083018124 -0.08295446 -0.025344249 0.037399422 -0.05953676 0.07819896 -0.018855294 -0.029984683
0.07944535 -0.053908862 -0.06990257 -0.03184454 0.029299848 -0.041285567 -0.05674459 0.02665912
-0.03410011 0.04014354 0.052993793 -0.026464852 -0.045513775 -0.00786837 -0.0819723 0.016729178

layers.layer_2.bias f4 [128]
00000000: 610b 483d d3d6 06bc 52dc 5b3d 5c4c 58bd
00000010: eddc 04bd 9681 0f3c f8ff 7ebc 5cf6 273d
00000020: 7863 c3bd 3cd6 42bd 458a 94bd 0eb8 0bbe
00000030: 3ddc 5fbc 964b 8fbd fc15 ab3d 84a7 d83b
00000040: 9451 36bd dcda 27bc 7aea c2bd c54f 453d
00000050: 39b8 913d e595 5f3d 073b 9a3d f914 41bc
00000060: 689d babb 4bee 82bd ee33 31bd 6574 433c
00000070: 3027 723d ca03 f0bc 68a3 55bc 194d 103d
00000080: 9e87 8b3c 6412 ea3d 9b18 5f3d f1d1 adbd
00000090: c386 26bd c0ad 2c3d 6467 b5bd 9742 b83b
000000a0: b9c2 803c d508 d93d 1ab7 a93d 277c 97bc
000000b0: 336d 503d 96ec 1ebd 7cfe 26bd 20d3 6b3d
000000c0: 4b1f 6cbd e1cd 1abd 9ce4 51bd a3e8 6abd
000000d0: 43e3 6f3d c040 b2bd 4d8b 883d f981 7e3d
000000e0: 7eec ba3d 88f5 5b3d 6940 01bc 49a8 55bd
000000f0: 2414 e4bd dd77 87bd 3b59 703c 60f2 c13d
00000100: 3ade bc3d 830c f2bc 1544 66bd 10d8 783d
00000110: fa2b 873d f7df 703c 9451 14bd 6c4c 69bd
00000120: 7bde 7b3d 1264 0aba 0366 0ebd 9c9f 843c
00000130: 659f 21bd fb5c 553d 28f8 493d 6744 d6bd
00000140: 9ce3 8f3d 3eaa 2d3b 6521 6dbd f31a 85bd
00000150: 8cdc b8bd 442a 553d 1995 d7bd b9a0 04bd
00000160: 4f6d 77bd c758 83bd 3ccc 633d 6857 46bc
00000170: 4a2b 5c3d 7b8f 6abd 4cc8 acbd 4e11 603d
00000180: 4044 c93d c943 a6bd 3e8f 813d 3df1 99bd
00000190: 1b64 a6bd b515 93bd d6e0 abbc 004b 72bd
000001a0: ef6c ad3d bbc8 a3bc c729 00bd 38b1 b73d
000001b0: cd6f 953d 0642 81bc cb12 a53d bf91 a23d
000001c0: 191b ffbb 43db 85bd 327d adbd da39 ae3d
000001d0: 8f4d 5b3c 3a17 94bd e71e 93bd 4973 693d
000001e0: 03b9 93bd 4eec 08bd 1b9f 8fbd dcba 803d
000001f0: 01f9 703d d73f 40bd fab4 4fbd 9094 45bd
0.048838977 -0.008229929 0.05367691 -0.052807197 -0.032437254 0.008758923 -0.015563957 0.04100643
-0.095404565 -0.04756759 -0.07252935 -0.1364443 -0.013663349 -0.06996839 0.083538026 0.0066117663
-0.044511393 -0.010245051 -0.09517379 0.048171777 0.07115216 0.05458631 0.0753079 -0.011784785
-0.005695034 -0.06393107 -0.043262415 0.011929606 0.059119403 -0.029298682 -0.013039447 0.035229776
0.01703244 0.11429289 0.054466825 -0.08487309 -0.040655863 0.04215789 -0.08857611 0.0056231725
0.015717851 0.10597388 0.08286877 -0.018491818 0.05088539 -0.038799845 -0.04077004 0.05757439
-0.05764703 -0.037793998 -0.05124341 -0.057350766 0.058566343 -0.08703756 0.066671945 0.06213567
0.091271386 0.053700954 -0.007888892 -0.052162442 -0.11136654 -0.06614659 0.014669712 0.094700575
0.09222074 -0.029546982 -0.05621727 0.06075293 0.06600185 0.014701835 -0.03621061 -0.056957647
0.06149147 -0.0005279194 -0.034765255 0.016189389 -0.03945865 0.052090626 0.049308926 -0.104622655
0.07025835 0.0026499177 -0.057893176 -0.06499281 -0.09026441 0.05204226 -0.10526485 -0.03237984
-0.06040698 -0.06413417 0.055614695 -0.0121058 0.05375222 -0.05726574 -0.08436641 0.054704003
0.09827471 -0.08118398 0.063261494 -0.07516716 -0.08124562 -0.07181875 -0.020981234 -0.059153557
0.08468043 -0.019993177 -0.031289842 0.08969349 0.07296715 -0.015778553 0.08060225 0.07937955
-0.0077852127 -0.065359615 -0.08471145 0.08507128 0.013385191 -0.072309926 -0.071836285 0.05699471
-0.072130226 -0.033428483 -0.07012769 0.062856406 0.05883122 -0.046935882 -0.050709702 -0.048237383

layers.layer_3.weight f4 [128, 128]
00000000: 555f 063d 8c26 383d 7462 823d 166e b03d
00000010: 42c7 883d 6a46 a53d 8296 e4bd 9212 39bc
00000020: 1499 883d f169 a93d acff 22bd abf4 d33b
00000030: cbc9 013e 0053 84bd bb41 753d 208a ce3c
00000040: 0d66 bc3d cf70 b0bd 8298 87bd f7b4 c93d
00000050: f27d bdbd 00a8 903d 08b3 7bbd edd9 9e3d
00000060: 44d9 cabd 1bfb 06bd 1167 113c 27f2 023d
00000070: 2ad8 73bb 60eb 90bd 8672 e73d 446c b7bd
00000080: 6c19 403d fdd5 d3bb 1f95 00bd 839d b93c
00000090: f6d1 77bd cfef 3dbc e1ab 323d 7a64 d6bc
000000a0: 53da 3a3d a224 bcbb caac 9d3d 49d8 3a3a
000000b0: dde6 4dbc f110 fcbd 143e 32bd d60a b8bd
000000c0: 2250 32bd 2191 073c f5f5 a53d 3bbd ac3d
000000d0: 6c69 173c 7f90 9b3c 0503 edbd b03c 2dbd
000000e0: 135e 10bc 0f65 d2bc b571 2fbd c7a9 c43c
000000f0: bc92 963d 9a99 36bc c6a9 4d3c b1a5 35bd
00000100: 944a 85bd 7644 16bd 08e8 7ebd ad44 983d
00000110: 13dd 453d abef febb ba24 e6bb 0e36 05bd
00000120: b9f0 8a3d d109 8f3b afe4 093d 7ea9 f93c
00000130: afd3 3dbd b4f0 4f3c 1187 ba3c 9f21 85bd
00000140: 7fe6 74bd 7677 0339 55c3 09bd 6668 3ebc
00000150: e5ad 15bd 8d0b 42bd 6274 49bd 4c39 82bd
00000160: bc44 023e 6add a3bd f1ec 58bd 2f42 27bd
00000170: 5c22 f5bc 7d6a 9c3d 30cf 3cbd b737 573d
00000180: 2fb6 a8bc 103c b53d 13fb 82bd 4175 c7bd
00000190: 89b6 90bd f58f e03d 3d90 efbc dad4 1bbd
000001a0: 1bba a8bc a5fd 3abd d574 d13b 0707 99bb
000001b0: 1ff8 873b c53c 773d 43e4 92bd a300 a6bd
000001c0: 031c 9d3d c406 0bbd 3002 513d 884b 863c
000001d0: e5c1 963d d4ae cfbc e847 93bc 1f9b 7ebd
000001e0: 9d8c 823d 9501 9bbd 6ee8 0abd c38d 2cbb
000001f0: 7323 04bb c7b5 e6bc a0ae a4bd 160d 3e3a
00000200: f818 7cbc c24d 9d3d d514 e9bb 7ab3 953b
00000210: 9ccb 0c3d 78df bebb 3fd4 8bbd ac8f 623d
00000220: a468 0cbd 032f 08bd 294c a8bd 6670 4a3d
00000230: f3ee 1d3d ca08 87bd 7609 8b3d fbbd 493d
00000240: 040c 9a3d 4eb6 2d3c 5b93 41bd adf7 803d
00000250: 2976 2f3d 4d60 c33d a6a7 ad3c 1671 193d
00000260: 9a10 cebc f56b da39 1b57 9dbd 1675 44bd
00000270: 3b96 b93d cf7f 123d 0187 da3c 8630 9d3c
00000280: 4332 16bd 7dc6 b1bc 7390 38bd 97bc aabc
00000290: 06d3 c43c 3ed8 413c 9ec1 4cbc 54d5 5138
000002a0: 0b3b 813d 5979 013d f5e9 423d 5fd4 103c
000002b0: 2d4a 713d a5ea e4bd 9f1c 2f3d 980a 12bd
000002c0: 016a 8bba 5435 193d ac45 273d f521 83bc
000002d0: 39ec dc3a e7c2 423d fb90 7abc 893b b8bc
000002e0: 8358 4bbc 142d f1bb a9bf eb3c 1338 75bb
000002f0: 3ed3 8abc 7c48 523c 4a13 48bd ac1f 8b3b
00000300: 0d79 fa3c ebff 003d 4da7 18bd 97a9 8dbc
00000310: f742 21bd 22c0 423d e4f7 2a3c 0040 523d
00000320: 0fbe 0b3d 1036 113c 16c9 64bd 6268 843d
00000330: 43b1 31bd d193 03be de90 31bd 4b88 b33d
00000340: 6768 1dbd adb1 633d 80d8 043d accd ebbc
00000350: c1ad 213d b7c9 e4bd 98a2 10bd 36ff a23d
00000360: b86b dabc be5b 8cba 8788 183d 274e 8a3d
00000370: e210 ed3c d82c bc3c 24b7 6abd d82a 67bd
00000380: 2935 9dbd 584a de3c e3f3 a63d 0311 ee3b
00000390: c45b f63b d604 99bd 9001 6d3c e303 06bd
000003a0: de3b bc3d a41c d53c 682a 34bd 3926 e3bc
000003b0: 6ae5 623d e42b 083b 6e3b 0bbe d04d f4bc
000003c0: 28b7 3ebd 7c4e d0bc 5280 0cbd 8e14 ba3b
000003d0: 2acb 833d c52d 78bd 5977 a93c 7ef6 a83c
000003e0: 2eac cabd d228 943c 5629 b43c a60e fd3d
000003f0: 9169 08bd 3332 f2bc a062 01bc db73 c6bb
0.03280576 0.044958636 0.06366435 0.08614747 0.066786304 0.08070071 -0.111615196 -0.011295931
0.06669822 0.0827216 -0.03979461 0.0064683757 0.12674634 -0.064611435 0.05987714 0.025212348
0.09199152 -0.086152665 -0.066208854 0.098489694 -0.09252538 0.070632935 -0.061450034 0.0775641
-0.099047214 -0.032954317 0.008874671 0.031969216 -0.0037207701 -0.07076144 0.113011405 -0.08956197
0.046899244 -0.0064647184 -0.031392213 0.022658115 -0.06050297 -0.011592819 0.043620948 -0.026170958
0.045618366 -0.0057416717 0.076989725 0.0007127566 -0.012567249 -0.12307919 -0.043516234 -0.08986442
-0.04353345 0.0082743475 0.08103553 0.0843453 0.009241443 0.0189898 -0.115728416 -0.042294204
-0.008811492 -0.025682954 -0.04283305 0.024006737 0.07352206 -0.01114502 0.012552684 -0.04434747
-0.06508365 -0.036686383 -0.062233 0.07434974 0.048306536 -0.0077800355 -0.007023421 -0.032522254
0.067841955 0.004365184 0.033665355 0.030476328 -0.046344455 0.012691665 0.022769483 -0.06500553
-0.05979013 0.00012537636 -0.03363355 -0.01162157 -0.036542792 -0.047374297 -0.049183257 -0.06358585
0.12721533 -0.08001216 -0.05296034 -0.040834602 -0.02992361 0.076374985 -0.046096027 0.05254337
-0.020594684 0.08849347 -0.06395545 -0.09739161 -0.07066066 0.109649576 -0.029243583 -0.038044788
-0.020596555 -0.04565205 0.0063921013 -0.004670027 0.0041494514 0.06036069 -0.07172444 -0.0810559
0.076713584 -0.033942 0.051027477 0.016393438 0.07361201 -0.02535192 -0.017978624 -0.062159654
0.06374476 -0.07568661 -0.03391307 -0.0026329614 -0.002016273 -0.02816285 -0.080411196 0.0007249875
-0.015386812 0.07680847 -0.007113079 0.0045685144 0.034373865 -0.0058249794 -0.06827592 0.055312797
-0.03427948 -0.03324796 -0.082176514 0.049423598 0.038557958 -0.06593473 0.06788914 0.049253445
0.07521823 0.010602547 -0.04725967 0.062972404 0.042837296 0.09539852 0.021198105 0.037461363
-0.0251544 0.00041660634 -0.0768263 -0.047963224 0.09061857 0.03576642 0.026675703 0.019188177
-0.036669027 -0.021701092 -0.045059633 -0.02084188 0.024026405 0.011831341 -0.012497334 5.002816e-05
0.0631009 0.031609867 0.0475864 0.008839696 0.05890863 -0.111775674 0.042751905 -0.035654634
-0.001063645 0.037404373 0.04083793 -0.016007403 0.0016855068 0.047549155 -0.015293355 -0.022489326
-0.01241124 -0.00736011 0.028777914 -0.0037417456 -0.016946431 0.012834664 -0.04884652 0.004245719
0.0305753 0.031494062 -0.037268925 -0.01729278 -0.039370503 0.047546513 0.010435078 0.051330566
0.0341168 0.008862987 -0.055855833 0.06465222 -0.04338194 -0.12849356 -0.043351047 0.0876623
-0.038429644 0.055589367 0.032433033 -0.028784595 0.039472345 -0.111712866 -0.03531131 0.07958834
-0.026662692 -0.0010708494 0.037239578 0.067531876 0.028938714 0.022970602 -0.057303563 -0.056437343
-0.07676155 0.02713506 0.081519864 0.0072652115 0.0075182635 -0.074716255 0.014465705 -0.03271855
0.09191106 0.026014633 -0.043985754 -0.027728187 0.055394568 0.0020778114 -0.1359689 -0.02982226
-0.04656139 -0.02542805 -0.034302063 0.00567872 0.06435235 -0.060590524 0.020686792 0.02062535
-0.09896122 0.01808587 0.021992367 0.123563096 -0.0333038 -0.029564952 -0.007897049 -0.0060562915

layers.layer_3.bias f4 [128]
00000000: 60cf 8abd 8088 76bd f16a 65bc 738b 813d
00000010: c67c 7fbd 9836 943c 10a7 8cbd 198a 053c
00000020: c76a 44bd 4036 1b3d c671 a63c c74d cebd
00000030: ab5a 3f3d a259 23bd 0b36 753c 70b6 df3d
00000040: b089 84bc 8f17 543a 1bcd 21bc f26a ac3c
00000050: 3633 743c 13d7 56bd 0cdd 07bd e1d7 a03d
00000060: d0a9 b23d 7c88 dbbc 1452 f5bc 2095 57bd
00000070: 5ecc 03bc 3fb4 33bd 4618 43bd 196b 8ebd
00000080: f90d 1cbd 4bc5 b4bc efab a23b 070e 8abd
00000090: 106b 443d ef7d 1dbc 3b7e 79bd 3424 98bd
000000a0: c689 47bd 6d49 c8bb 0b58 793d 47a4 65bb
000000b0: 76bb 503d 01cf 9dbb f8f0 083c 6cdc 1abb
000000c0: cca7 dcbc efab d9bd fc81 1f3d fec6 56bd
000000d0: 63d5 983c a7eb 0c3d fe6d 893d 2bb4 3f3d
000000e0: 2f53 98bd 437c 913c 49e6 6f3d 04fc 863b
000000f0: 2c48 c1bc 0c1d 06bd 0b10 073b 0eb5 6dbd
00000100: a819 9ebd 6854 8b3d a924 50bd 5b27 bf3d
00000110: 58b6 ce3c 2b2b f0bc 29a9 5dbc d958 363d
00000120: 3735 63bd f15f 8d3d 1077 1fbd e222 acbc
00000130: afda 3bbd d0fa 1a3d 1503 2abd e5b5 cdbd
00000140: 5953 ffbc 70ab 483d 2982 53bd f005 9dbd
00000150: a9ca 8d3b fde5 5cbc 4fb0 af3d 3738 043d
00000160: a9e1 1dbb 39f6 893c f307 b73d 3fc2 ab3c
00000170: 4d08 25bd aae2 afbd ddf5 a6bd 4fde 94bd
00000180: 08ba 52bc 8305 013d 9542 6d3d 8075 8d3c
00000190: 4ea9 99bd d343 39bc cbfd 1a3d 3c85 a6bc
000001a0: bf11 953c a724 eebb 3947 f03b 9b20 8ebd
000001b0: eb84 ac3d d585 553d 1474 1cbd 8e3a 92bd
000001c0: 999c 26bb 93d9 d73d a4de 553d 0a9d 16bd
000001d0: e6ed 493c 489d 33bc fe5d a5bd 736c 7f3d
000001e0: 8dfe c63c 01c7 72bb 10a1 433d 1b1c 9ebc
000001f0: 7af6 8c3d add3 b5bd ef67 64bd 4ed7 2c3d
-0.06777835 -0.06018877 -0.014002548 0.06325426 -0.062374853 0.018092439 -0.06867802 0.008150601
-0.047953393 0.037893534 0.020317923 -0.100734286 0.046717327 -0.039880402 0.014966498 0.10923469
-0.016178936 0.00080906687 -0.009875561 0.02104709 0.014904788 -0.052451205 -0.03316979 0.07853676
0.087237954 -0.02679848 -0.029946364 -0.05263245 -0.00804433 -0.043873068 -0.04763057 -0.06954021
-0.038099263 -0.022066733 0.0049643437 -0.06740957 0.047953665 -0.009612544 -0.0609114 -0.0742878
-0.048715375 -0.0061122687 0.06087498 -0.0035040544 0.050960027 -0.0048159366 0.008358233 -0.0023629917
-0.02693548 -0.10628497 0.038942322 -0.052435867 0.018656438 0.034404423 0.067104325 0.04680268
-0.07437741 0.017759448 0.058569226 0.004119398 -0.023593985 -0.032742545 0.0020608928 -0.058033995
-0.07719737 0.068032086 -0.05081621 0.09333678 0.025233433 -0.02931746 -0.0135291 0.044518325
-0.05547067 0.06903065 -0.038931906 -0.021012727 -0.04586285 0.03783685 -0.041506846 -0.10044459
-0.031167673 0.04899162 -0.051637802 -0.07667148 0.0043271375 -0.013482568 0.0857855 0.032280173
-0.0024090803 0.01684104 0.08937063 0.020966647 -0.04029112 -0.085881546 -0.081523634 -0.072689645
-0.012861736 0.031499397 0.057924826 0.017267942 -0.075029954 -0.011307674 0.037839692 -0.020327203
0.018196939 -0.007267553 0.007332709 -0.06939813 0.084237896 0.052129585 -0.03819664 -0.07140075
-0.002542293 0.10539546 0.05221428 -0.036770858 0.012324786 -0.010962792 -0.08074568 0.062359285
0.024291301 -0.0037044885 0.047761023 -0.019300511 0.06882949 -0.088782646 -0.05576318 0.042197518

layers.layer_4.weight f4 [128, 128]
00000000: 210a 3b3d 37b7 0c3d 2bcf b43d 9ed8 e6bc
00000010: 36a8 adbd 787a a13d 3334 47ba ebb7 683d
00000020: 6596 0a3d cdea 803d f767 10bc a6d1 0abd
00000030: 281c 143d 3a76 d73d 1fb3 e5bc 27fa de3d
00000040: c911 f2bd 0a8d 583d 8e6b d63c 7f37 873c
00000050: 6818 9fbc 1c0e e13d bb46 0d3d bbad 43bd
00000060: cc0b bbbb 6b39 163c f9fe 0c3d 4e61 8a3d
00000070: 6c19 323d b7e0 b9bc 0e80 f53c 630d 74bc
00000080: a414 7e3c ef5b 2abc 5f58 9f3d 58e8 d63d
00000090: 7a27 62bd 5dfe f0bc 2c66 2a3c 4812 d1bb
000000a0: e24c 34bd f39c f0bb 182d 3a3d 93a7 62bc
000000b0: 020b b1bd d422 803d 17ac 683d de8f 50bd
000000c0: a09b 753c 97c5 3d3d 9e4b 03bd 79fe 78bd
000000d0: 01fb 233d 7d33 c43b c4b9 043d 3fa3 b1bc
000000e0: 9e4b e5bc b57b 2e3d 8325 d83c e5da cd3d
000000f0: 2d91 d73d 94bd ad3d fcfb 43bd 6550 e3bc
00000100: 0698 c03b 33c8 8a3d 3506 d73c a50e fb3c
00000110: 91cd b1bd 6491 c93d 48a7 6b3d db4b cc3d
00000120: a2de 1abc e6b0 e2bc 5270 e8bd 753d af3d
00000130: 304c c7bd 845e 10bd 8441 6ebc 9306 e9bb
00000140: b2d5 97bd cf44 08bc f1b1 253d bf7c 54bd
00000150: 0f93 debb 0f07 893d 940e 123d 9955 cabd
00000160: 9187 cb3b f667 f43c 4438 913c c2ac 5abd
00000170: 0678 a4bc 388e 5f3c 6ea1 3bbc c13a 6bbd
00000180: 4669 af3a 2a24 3b3c 9038 993d ef44 97bd
00000190: 8829 3fbd 8bbf 1d3d 5585 033d 9160 5c3d
000001a0: 1585 6c3b 999e 573d be01 773c 3d07 64bd
000001b0: 7632 493c 3bd4 8cbd f029 1cbd d98d 8a3d
000001c0: 717a f7bc 8341 0b3d 298f 013e 5916 83bc
000001d0: 9f55 57bd 5dcf 7e3d 2d00 043d a53f 893d
000001e0: 559d 4d3d ebdf b4bc 6a5d 0d3d 7454 513d
000001f0: 1451 9dbd a826 4fbd 7f1b 6b3d 6140 463d
00000200: fbc8 843d 0ac3 b13d d181 593d f08c 9d3d
00000210: 8877 92bc 117c 873d b15b 313d fba5 24bc
00000220: f14b 703d a3aa 8b3d 3bbb b23d c6f5 4d3d
00000230: b81c 9a3c b37f a03c 0a00 1fbd e0b0 833d
00000240: 1353 1f3d db8f 783d 7c83 4cb9 722d e03d
00000250: c700 d8bd 1b98 8c3d 9c85 863c cb1b 80bd
00000260: 5e5b b5bc fb12 dcbd cacf 8a3d 023d 4dbc
00000270: dfa5 9e3c bd94 bfbd 9e85 153c 58ad 213c
00000280: 9ebe a6bd c95a b33d 9724 3fbb 7a09 1dbd
00000290: 7f04 203d 5544 d43c bd80 d7bc 8ed5 123e
000002a0: 4a8e 87bd cbbe 15be 3f91 79bd cd76 0fbd
000002b0: 83ec 153d 7325 a1bd 478f b1bc 3ebd ad3a
000002c0: c52d 823d 1b68 b33d 23de 133e 1bde 563d
000002d0: c9c7 82bd 217b 37bd 787e 013d 93a3 0cbd
000002e0: 010f 2e3d 6d27 08bd 86ad ee3d 5578 afbd
000002f0: 064c 923d 4651 bbbd fbcb dc3d 8dcd 0f3e
00000300: 1d19 2cbd da43 87bb 14bf 8b3d 7333 7abd
00000310: 9279 c33d 34fe 23bd 265f 78bc 128c 3c3d
00000320: 38ba 503d 809f 12bc 391b 4e3d 8210 cc3d
00000330: f4ae 24bc 8bdb d13c 43f3 ed3d b288 02bd
00000340: 2f1d b0bc 6c67 bd3a 3735 9fbd 2dd8 3d3c
00000350: 7574 db3d e8bf 813d b80c 1ebc ec52 8f3d
00000360: b6a4 ee3d 03f0 903c 151b 893d 174e c8bd
00000370: f173 16bd 1ac2 2d3d 17aa bbbc 58ae 953d
00000380: e962 adbd 78c9 9dbc 299e 0f3d 92fc 603c
00000390: 693b df3d ccf7 cf3c d782 24bc 809c 833d
000003a0: 60db 5ebd 04eb 573d fb51 acbc 86ab 37bd
000003b0: 1704 e4bc 375f 6b3d ce26 853d a7db 973c
000003c0: d6c0 4bbc 903b bbbd dfa7 1dbe 9182 103e
000003d0: 9e4e d9bc db37 cb3c 1761 1bbd 2a69 32bd
000003e0: a506 30bd 1f7e d9bd a5bb 8c3c 8dcb 94bc
000003f0: 41b3 9fbd 5963 8cbd 318f 1cbb a80c 5d3d
0.045663957 0.034354415 0.08828577 -0.028179463 -0.08479349 0.07884687 -0.0007599026 0.056816023
0.033834834 0.06294785 -0.00881385 -0.033891343 0.036159664 0.10520597 -0.028039513 0.108875565
-0.118197985 0.05286888 0.026174333 0.016505955 -0.019420817 0.10989019 0.034491282 -0.047773104
-0.0057081934 0.009168963 0.03442285 0.06756841 0.043481275 -0.02269016 0.029968288 -0.01489577
0.015507851 -0.010397895 0.07780527 0.10493535 -0.05521343 -0.029418165 0.010400336 -0.006380353
-0.044018634 -0.0073429286 0.04545316 -0.013833898 -0.08644678 0.06256643 0.056804743 -0.050918452
0.014990717 0.046331014 -0.032054536 -0.06078956 0.040034298 0.005987583 0.032403722 -0.021684287
-0.027990159 0.042598445 0.026385074 0.100515164 0.10525737 0.08483425 -0.047847733 -0.027748296
0.0058774976 0.06776466 0.026248077 0.030646631 -0.08681787 0.09842184 0.05753258 0.09975406
-0.009452494 -0.027672242 -0.113495484 0.08556644 -0.097313285 -0.035246387 -0.014541987 -0.0071113794
-0.07413806 -0.0083171865 0.0404529 -0.05187678 -0.006792433 0.066907994 0.035658434 -0.09879608
0.006211229 0.029834729 0.017727025 -0.05338741 -0.020076763 0.013644747 -0.011452062 -0.05742908
0.0013382814 0.011422196 0.074814916 -0.07386195 -0.046670467 0.038512748 0.032109577 0.05380303
0.0036090065 0.052641485 0.015076099 -0.055670965 0.012280097 -0.06876417 -0.038125932 0.067653365
-0.030209752 0.033998024 0.12652268 -0.016001867 -0.05257189 0.062209476 0.03222673 0.06701592
0.05019887 -0.022079429 0.034512915 0.05110593 -0.0768148 -0.050573975 0.05739927 0.04840124
0.064836465 0.08679779 0.05310232 0.07692897 -0.017879263 0.06615461 0.043300334 -0.010049338
0.058666173 0.06819656 0.08727118 0.050283216 0.018812522 0.019592142 -0.038818397 0.064302206
0.038897585 0.060684066 -0.00019503938 0.10946168 -0.10547023 0.06864949 0.016421132 -0.06255301
-0.022138294 -0.10745808 0.06777914 -0.012526752 0.019366203 -0.093545415 0.009126095 0.0098679885
-0.08141826 0.0875755 -0.0029166096 -0.038339116 0.039066788 0.02591149 -0.026306504 0.14339277
-0.06618936 -0.14623563 -0.060929533 -0.035025407 0.03660251 -0.07868471 -0.021674765 0.0013255251
0.06356386 0.08760091 0.14440207 0.05245791 -0.06385762 -0.04479516 0.03161475 -0.034335684
0.042494778 -0.033240724 0.11654191 -0.085678734 0.071434066 -0.09146361 0.10781094 0.14043255
-0.042016137 -0.0041279616 0.06823555 -0.061084222 0.09544672 -0.04003735 -0.015159404 0.04603202
0.050958842 -0.008949161 0.05031893 0.09964086 -0.010051478 0.025617382 0.11618664 -0.031868644
-0.02149829 0.0014450378 -0.07773822 0.011587185 0.10715572 0.06335431 -0.009646587 0.06998238
0.1165251 0.017692572 0.066946186 -0.097805195 -0.036731664 0.042421438 -0.022908254 0.07308644
-0.08466131 -0.019261107 0.035062943 0.013732092 0.109000035 0.025386713 -0.01004096 0.064263344
-0.05440843 0.052714363 -0.021035185 -0.044841312 -0.027833981 0.05746385 0.06501542 0.018537356
-0.012436112 -0.0914222 -0.15396069 0.14112307 -0.026526745 0.024806907 -0.03793439 -0.043557324
-0.042975087 -0.10619759 0.01717932 -0.018163467 -0.07797862 -0.068548866 -0.002388906 0.053967148

layers.layer_4.bias f4 [128]
00000000: 98fc 033c e088 06bb c38b 74bc 3690 5f3d
00000010: 7223 59bc 5bd8 ee3c e4c9 853d 1ef4 29bc
00000020: 76ba ef3c 23eb 5e3c 0bd1 aabc baff b0bc
00000030: cff7 b5bc 2609 67bd 2383 f73c d373 9fb9
00000040: 6922 ab3d d12d a2bb 7c68 7838 6561 d23c
00000050: bb94 1fbd 6023 35bd ff0d 3d3d b1e8 65bd
00000060: 633c 89bc 1d86 bb3c 6910 273d dc88 ed3c
00000070: e6e3 923d 39e2 febc 4edc 98bc b0f1 dcbc
00000080: fc70 39bc 9048 4cbd f979 653b 67e1 503d
00000090: 4cd0 b53c f831 423d 1cb4 d63a db40 febc
000000a0: 6ecb 2abd c5be 643d 8436 ad3d e828 67bc
000000b0: 4859 b43d 1faa 7abc e0cb 423b 3832 483d
000000c0: 0aa5 b3bc dc83 7a3d bcb0 a93d 689e 57bd
000000d0: cbb6 75bd a26d 14bd 20c3 44bd 2e95 413d
000000e0: 4075 933b 72c1 723d da6a 813d 5917 4bbd
000000f0: d4a3 6b3d b7fe 963d ce35 e1bc 4798 053d
00000100: 6f10 483d d6dc 083d 78b8 69bd 1512 6ebd
00000110: 81ff ac3c 409c 473d e966 9c3a 516d e33b
00000120: d19e 443d 8c6b 963c fa7a 673c 66fd 3cbd
00000130: 5ab6 723d 70f0 2f3c 6ad1 be3b f2ba 9e3d
00000140: 69c0 13bd 7250 b23c 3c2c a63d a05b 983d
00000150: f686 a2bc c750 4f3d e0a6 413c 490c 483d
00000160: f13c 20bc a467 ba3c d58f 50bc ceb0 1e3d
00000170: 1131 72bc 2fc6 b1bc f206 fe3b 14ce 5dbd
00000180: 1b00 bf3c 8b32 8dbd 44d6 a23d 43df cebb
00000190: f176 b23c 6300 aa3c cc9a 79bc 58b9 37bc
000001a0: 740e ad3c c751 18bd cd3c 6abb f8d3 7b3a
000001b0: 73e1 0ebd 26b7 d83b a44d 54bc a1c0 5abc
000001c0: 300e 94bb 6991 d43c 43eb 9ebd beae f8bc
000001d0: 5834 94bd 95a1 4ebc 115a 38bd 8581 c43c
000001e0: d666 82bd e6ce 353c b011 913c 2143 11bd
000001f0: 6ab7 d83c 09a4 bf3c 40c4 a23c 292b dfbc
0.0080558285 -0.0020528361 -0.0149259 0.05458089 -0.01325308 0.0291559 0.06532648 -0.0103731435
0.029263716 0.013605866 -0.020851633 -0.021606315 -0.02221289 -0.05640521 0.030213898 -0.0003041314
0.083561726 -0.0049493094 5.9225116e-05 0.025681207 -0.0389602 -0.04422319 0.046155926 -0.056130115
-0.016752427 0.022891099 0.040787134 0.028995924 0.071723744 -0.03111373 -0.018659737 -0.026970714
-0.0113184415 -0.04987389 0.0035015328 0.05099621 0.02219405 0.047410935 0.0016380581 -0.031036785
-0.041697912 0.055845995 0.08457664 -0.014108874 0.088060915 -0.015299349 0.002972357 0.048876017
-0.021929283 0.061160907 0.082856625 -0.052641302 -0.059988778 -0.036237366 -0.04803765 0.04726141
0.0045000613 0.059266515 0.063192084 -0.049582813 0.057529286 0.07372802 -0.027491476 0.032615926
0.048843797 0.03341373 -0.05706069 -0.058122713 0.021117928 0.048732996 0.0011932525 0.0069405218
0.04800302 0.01836183 0.014128441 -0.046140097 0.059255935 0.010738477 0.005823304 0.07750501
-0.03607217 0.021766875 0.08113906 0.07439351 -0.019839745 0.050614145 0.011819571 0.04883984
-0.009780155 0.022754498 -0.012729605 0.038742833 -0.014782206 -0.021700947 0.007752293 -0.05415161
0.02331548 -0.06894406 0.07951024 -0.006313236 0.021785231 0.020752138 -0.01523466 -0.011213623
0.021125056 -0.037187364 -0.0035741806 0.0009606476 -0.034882974 0.00661363 -0.012957964 -0.01335159
-0.004518293 0.025948243 -0.07759716 -0.030356761 -0.07236546 -0.012611766 -0.04500777 0.023987541
-0.06367271 0.011096692 0.01770863 -0.03546441 0.026454646 0.023393648 0.01986897 -0.02724226
